ch8/Bill_test/result/out.model (npz, 1967 bytes, 6 tensors)

predictor/l3/W f4 [4, 10]
0	0xbf18fe59	-0.59763104
1	0xbe6eec04	-0.2333222
2	0xbf30c19c	-0.69045424
3	0x3b9b9a48	0.0047486164
4	0xbec947f5	-0.3931271
5	0xbe8190f3	-0.253059
6	0x3f117c8c	0.5683067
7	0x3e9d1100	0.30677032
8	0x3cc4910a	0.023994941
9	0xbeaa709e	-0.33289045
10	0x3e1c4ede	0.1526446
11	0x3ec3195f	0.38105294
12	0x3e649585	0.22322662
13	0xbd06c724	-0.03290476
14	0xbf031054	-0.5119679
15	0x3e3572b6	0.1771954
16	0xbe728666	-0.23684081
17	0xbe332167	-0.1749321
18	0x3f0662e3	0.5249464
19	0xbda4afb7	-0.080413274
20	0x3e664461	0.22487022
21	0x3d9e66bc	0.07734439
22	0xbe91a24e	-0.2844414
23	0x3eb8f46b	0.36123976
24	0xbc0d739b	-0.0086335195
25	0x3e6f5201	0.23371126
26	0xbe255037	-0.16143881
27	0xbe38051d	-0.179707
28	0x3d3cdf46	0.046111368
29	0xbebe9559	-0.37223318
30	0xbefcc646	-0.4937002
31	0xbd111519	-0.03542051
32	0xbe1d0470	-0.15333724
33	0xbd8f8e5e	-0.07009576
34	0xbe687e80	-0.22704506
35	0xbed33cbc	-0.41257274
36	0xbd21a243	-0.039461385
37	0xbcb4804d	-0.022033835
38	0xbe708f2e	-0.23492119
39	0xbe31409a	-0.173098

predictor/l3/b f4 [4]
0	0x3e883a63	0.26607046
1	0xbe2391a5	-0.15973528
2	0x3fd54ac7	1.6663445
3	0xbf9b6284	-1.213944

predictor/l1/W f4 [10, 4]
0	0xbecc4283	-0.39894494
1	0xbc8100a1	-0.01574737
2	0x3ed306a5	0.41216007
3	0x3e0e6127	0.13904248
4	0xbd43c525	-0.047795434
5	0x3ef992e3	0.48744878
6	0x387d1da2	6.03475e-05
7	0x3ed8cf1b	0.4234551
8	0x3f01b0b3	0.50660247
9	0xbf26f99a	-0.6522461
10	0xbf293774	-0.6610024
11	0x3f2e55e5	0.68099815
12	0xbe00d734	-0.12582093
13	0xbe97f3af	-0.29678103
14	0xbe541e45	-0.20714672
15	0xbf6ab02e	-0.9167508
16	0x3f0d5685	0.55210143
17	0x3ea00781	0.31255725
18	0x3f6b4552	0.9190265
19	0x3e446193	0.19177847
20	0xbefcb32a	-0.4935544
21	0x3ede2294	0.43385756
22	0xbf30715d	-0.6892298
23	0x3f3a01ca	0.7265898
24	0x3d2ff0f6	0.042954408
25	0xbf4f30a2	-0.8093358
26	0x3e30ba4e	0.1725857
27	0xbe8c2197	-0.27369377
28	0xbc6e9117	-0.014560959
29	0xbe99d047	-0.30041716
30	0x3f11904d	0.5686081
31	0xbeae9bef	-0.34103343
32	0x3f12ad12	0.57295334
33	0xbe954d59	-0.29160574
34	0x3e6ec107	0.23315822
35	0x3e50d44c	0.20393485
36	0x3d0fc17d	0.035096634
37	0x3cd39dff	0.025832174
38	0xbee10f25	-0.43956867
39	0x3e990d82	0.29893118

predictor/l1/b f4 [10]
0	0x3e9796b3	0.29607162
1	0xbe104657	-0.14089333
2	0xbea2de96	-0.31810445
3	0x00000000	0.0
4	0xbe726bbd	-0.23673911
5	0x3d7af9f1	0.06127352
6	0x00000000	0.0
7	0xbe944a26	-0.2896282
8	0x3ea5e7d4	0.32403433
9	0x3e65980d	0.22421284

predictor/l2/W f4 [10, 10]
0	0x3f2cdb21	0.67521864
1	0xbe0d0c5b	-0.13774244
2	0x3f43991b	0.76405495
3	0x3c852fa2	0.016258065
4	0xbd821711	-0.06352056
5	0x3e86583e	0.26239198
6	0xbf18747a	-0.5955273
7	0xbec504fd	-0.38480368
8	0xbec34346	-0.38137263
9	0xbeb0b46f	-0.3451266
10	0xbc81e925	-0.015858242
11	0xbc81627e	-0.015794035
12	0x3e2e9175	0.17047675
13	0xbe6a44ff	-0.22877882
14	0xbeb2e413	-0.34939632
15	0x3da5eaaf	0.08101403
16	0x3e49f3f2	0.19721964
17	0x3e2de907	0.16983424
18	0xbb36cbbf	-0.0027892438
19	0x3e8e682e	0.27813858
20	0xbe6be715	-0.2303737
21	0x3e72d821	0.23715259
22	0xbbec767e	-0.007216274
23	0xbe15a8f4	-0.14615232
24	0x3dd5a651	0.10432113
25	0x3e54215a	0.20715848
26	0xbf2d2ed6	-0.6764959
27	0x3e0a1c6d	0.13487406
28	0x3b813d1d	0.003944053
29	0x3e829f7d	0.25512305
30	0x3f247202	0.6423646
31	0xbd2cfce6	-0.04223337
32	0x3e249baf	0.16075014
33	0xbcde1ae3	-0.02711243
34	0xbf04ffce	-0.51952827
35	0x3ef36c35	0.47543493
36	0xbe4e6335	-0.20155032
37	0x3d2850c9	0.041092668
38	0x3eb3f2fe	0.35146326
39	0x3edba868	0.4290192
40	0x3e8ab9ef	0.2709498
41	0x3c70d241	0.014698566
42	0xbe46b053	-0.194032
43	0x3dd19212	0.10232939
44	0x3dee120c	0.11624536
45	0x3ee58f54	0.44835913
46	0x3e8b6910	0.27228594
47	0xbed0a7e2	-0.40753084
48	0x3e03a636	0.12856373
49	0xbc8f1e52	-0.017470513
50	0xbea04e5b	-0.3130978
51	0xbf36c334	-0.71391606
52	0xbd143c39	-0.036190245
53	0x3e1c00e0	0.15234709
54	0xbd7c4a84	-0.0615945
55	0xbe8a4d28	-0.2701199
56	0xbe6855fd	-0.22689052
57	0x3eb7d9de	0.35908407
58	0x3ecfb246	0.405657
59	0x3e06ba47	0.13156997
60	0x3e97dad6	0.29659146
61	0x3ebb1f8a	0.365475
62	0x3d98cd6a	0.074610546
63	0xbe7a943e	-0.24470612
64	0xbe1bd6ed	-0.15218706
65	0x3df7a7b1	0.120925315
66	0x3f200f44	0.62523293
67	0x3e321d9b	0.17394106
68	0x3e884d62	0.26621538
69	0x3f22f8d2	0.6366092
70	0x3e2ef8e3	0.1708713
71	0xbe15ce6a	-0.14629522
72	0xbeb26cba	-0.34848577
73	0x3e3318b3	0.17489891
74	0xbdfceba8	-0.12349635
75	0xbdf706c1	-0.12061835
76	0xbe8cb616	-0.2748267
77	0xbe4c44b6	-0.19948086
78	0xbef2077b	-0.47271332
79	0x3f3a0d9c	0.72677016
80	0x3d6b6fe8	0.05747977
81	0xbf0f3ec2	-0.55955136
82	0x3e0de5cc	0.13857192
83	0x3f23c2b0	0.63968945
84	0x3e7d78c4	0.247531
85	0x3f1715b6	0.59017503
86	0x3d363c76	0.044491254
87	0xbe26fa5a	-0.16306439
88	0xbea38c5c	-0.31943023
89	0xbf145a84	-0.57950616
90	0xbebe5905	-0.37177292
91	0x3e800af8	0.25008368
92	0xbd363482	-0.04448367
93	0xbe023468	-0.12715304
94	0xbf053e6b	-0.5204837
95	0xbc50b1fc	-0.012737747
96	0xbe5f5436	-0.21809468
97	0x3efeceb1	0.49767068
98	0x3ea08721	0.31353095
99	0xbd03bc85	-0.032162208

predictor/l2/b f4 [10]
0	0xbe516e82	-0.20452312
1	0x8d1d5374	-4.8479813e-31
2	0xbedd3f87	-0.4321253
3	0x3d5bc48a	0.05365423
4	0x3f05c3a1	0.5225163
5	0x3e01bc30	0.12669444
6	0x3e0bfdf5	0.13671096
7	0x00000000	0.0
8	0xbe079433	-0.13240127
9	0x00000000	0.0
