ch9/Camera_CNN_Box/result/CNN.model (npz, 178751 bytes, 6 tensors)

predictor/conv1/W f4 [16, 1, 3, 3]
00000000: eec1 86bd ee13 eabd 0ddc c73e 8389 44bc
00000010: 14a7 45be d178 96be e4e3 093f 9f88 f73e
00000020: 417c 753e 2c87 e6be 1e63 45bf a4c7 393e
00000030: 052c c23c 03e0 2ebe 03f1 853e 37c6 86be
00000040: cff4 59bf 549a 9fbe d021 adbc cef6 21be
00000050: 7824 adbe 22aa 593e 3f9f cd3e ea33 8b3e
00000060: 2da3 893c 7fc5 82bd 5d36 d43e 6f6f 5b3c
00000070: a568 0f3d 01a0 cabd ff14 01bf 82f5 31be
00000080: e6ff 39be 4890 a93d 3feb d13e ee51 05bf
00000090: 1a9d 24be 9da9 19bd 2166 2d3f 1fe5 3e3f
000000a0: 6d4d 4fbe 4111 873e e6b8 17bc 3357 a33e
000000b0: af13 f3be ac87 bd3e d03d e7bd 54e7 b9bd
000000c0: 1a08 2fbe 74ac fe3c 7151 69be 037a d03e
000000d0: f6bb ec3e 256e 943c 8c11 e8be ecae ab3e
000000e0: 3b0b 9bbe f098 9c3d 3e32 04bc 6ebb 6ebf
000000f0: 6801 863d ec33 b9be 23d7 efbe c8fe 1d3e
00000100: 3e63 8a3c 718f 573e 092f cebe 020a 17be
00000110: 1461 c7bd c00c d73e 2c7d aabd 5eee 01be
00000120: 0e56 953d 2bfe ab3e 0e36 193e fbb6 b23e
00000130: f3f9 d43d 07c1 b3be 121b 16bd d620 233e
00000140: 8076 01bf bb57 7ebf 764d 733e e154 dbbe
00000150: ecad 693f 3b8b 24bf 4fdc d0bd e3bf 90be
00000160: 77be a0bc 3f8b e2be 1ad4 093e f3ae 8e3e
00000170: 7f35 2b3e 8961 063f 1f01 34bf e746 933e
00000180: 2c8c 023f 9f2f babe a6f5 51be bb3b 43be
00000190: d609 febd 5814 123e 0c62 ea3e 39f7 a73e
000001a0: 33d6 dabd 54e5 843e 1a1d 293e 80d8 4fbe
000001b0: eac5 07bd 5ae8 993e 902f 813e 4f87 963e
000001c0: 34c3 2d3f b9cb bf3d e154 993e 3e56 16bf
000001d0: fe0e 84be 65cf 39be 7d45 9cbd e78d 8e3e
000001e0: a7cb 133e b8ed 343e ab74 9d3e 7515 043e
000001f0: 4817 63bd 3c90 fb3d 8ece 97be d84f 263e
00000200: 10d7 1c3e 67ff c4bd 8aa3 a23b cd03 80be
00000210: e963 843d 3253 77be a501 053f 2ddd 973d
00000220: 875c 0dbe 2e89 a8be 23e9 233e a3bb aa3c
00000230: 08d0 f33e 623c 67be 8f2f e33d 0505 bd3e
-0.06579958 -0.114295825 0.39035073 -0.011995676 -0.19302016 -0.2938905 0.5386336 0.4834642
0.2397318 -0.45025003 -0.77104366 0.18142563 0.02370263 -0.17077641 0.2616044 -0.263231
-0.85139173 -0.3117243 -0.021134287 -0.15816805 -0.33816886 0.21256307 0.40160558 0.27188045
0.016801441 -0.06385326 0.41447726 0.013393267 0.035011906 -0.098937996 -0.5042266 -0.1737881
-0.18164024 0.082794726 0.4099979 -0.5207814 -0.16075554 -0.03751527 0.6773396 0.7456836
-0.2024438 0.2638035 -0.009260392 0.31902465 -0.47475955 0.37017572 -0.11291087 -0.090773255
-0.17092934 0.031088091 -0.22784974 0.40718088 0.46237153 0.018118927 -0.45325887 0.33531892
-0.30282006 0.07646358 -0.008068619 -0.93254745 0.06543237 -0.36172426 -0.46843824 0.15429223
0.016893025 0.21050812 -0.4027026 -0.14749911 -0.09735313 0.42001915 -0.08324656 -0.12688586
0.07291804 0.33592352 0.14962026 0.34905228 0.103992365 -0.35108206 -0.03664691 0.15930495
-0.5057144 -0.99352616 0.23760018 -0.42838195 0.9128101 -0.6427495 -0.101982705 -0.28271398
-0.01962207 -0.4424686 0.13459817 0.2786785 0.16719626 0.52492577 -0.7031421 0.28765032
0.50995135 -0.36364457 -0.20503864 -0.19065754 -0.1240422 0.14265573 0.4577793 0.32805803
-0.106853865 0.25956213 0.16515008 -0.20297432 -0.03314773 0.30060083 0.252316 0.29400107
0.6787598 0.09365029 0.2994757 -0.58725345 -0.25792688 -0.18145521 -0.07630441 0.27842638
0.14433156 0.17668808 0.30753073 0.1289881 -0.055442125 0.1228337 -0.29649776 0.16241395
0.15316415 -0.09619027 0.004963343 -0.250029 0.06464369 -0.2415283 0.51955634 0.07415233
-0.13804828 -0.3291716 0.16006903 0.020841425 0.47619653 -0.22581628 0.110930555 0.36917892

predictor/conv1/b f4 [16]
00000000: 68d9 b0bc 7296 44bc 4dfd c0bc 69e6 5d3c
00000010: 8441 b7bc c782 98bc 67c4 4c3c a3dc 8e3c
00000020: 023f b83c 6708 17bb da4e a1bc 0466 42bc
00000030: ddd1 b7bc 68b1 5c3c 0e61 81bc 7abe 28bc
-0.021588042 -0.01199876 -0.023558283 0.013543704 -0.022370107 -0.018617047 0.012497998 0.017439192
0.022490982 -0.002304578 -0.01969092 -0.011865143 -0.022438938 0.013470031 -0.01579335 -0.010299319

predictor/l3/W f4 [6, 6400]
00000000: bd26 1dbc 59a1 b03b e0d6 e03c 0234 a63b
00000010: 2ce8 a13c 89a9 c33c fb36 713c e518 0c3d
00000020: 0e85 573c bfa6 5dbc 56f4 a1bb 87d8 183c
00000030: 9c2f 573c a79d 25bc b9bb 973c 27a4 57bb
00000040: dea9 4d3c 21c3 42bc 26c4 bd39 71db db3a
00000050: e11e 8cbb 7cb7 143c c2ed 463c 6737 033c
00000060: 40b0 09bc aed2 87bb c52c 553c 090b 42bc
00000070: 030b f2ba 1a8c 9fbb ebac 2b3c 5fa5 113c
00000080: 9245 32bc e961 e838 a90c a6bb bf9a 023b
00000090: da84 ae3c 82a0 ba3a a17f 513c ffac 02ba
000000a0: 5b3f a2bb 3dac 093c 8991 95bb b1b7 8bbc
000000b0: 2d3d 89bb 687a 72bc 3268 01bc 79d0 4d3a
000000c0: 1edd 953c a766 53bb 4622 4e3a 2016 0c3c
000000d0: 85c4 443c 84fd e93c 2a54 8d3b fcf9 01bb
000000e0: 54a1 5dbb e7d2 86bc 6674 9bbc bd5c d0bc
000000f0: 03f0 f1bb bf91 e8ba 7bcb 2f3c 9f72 3bbc
00000100: 6c87 4c3c 3552 f4bb da6b 93bb 9997 c5bc
00000110: 1548 853b 75ac de3b 18ea 87bc 1ff5 25bc
00000120: 9740 ad3b 038f db3a 6bce 8eba a1bf 543b
00000130: 2b0a 90bc bb9b 78bc 3597 9d3c 5b94 eebb
00000140: 5e64 243a a5b8 0a3c 7767 72bc 27c5 d23b
00000150: 9aa3 1ebc e4b5 433c ac1c 3b3c a82e a13b
00000160: f3a6 ed3b bee3 13bc a645 1f3b bee8 1cba
00000170: 731f fbbb b5c6 f23c 09aa b139 19d5 6a3b
00000180: d332 2e3b 3a4a 24bc 31c4 443b 74f1 c83b
00000190: 72d3 e43c 37e2 193c 7857 c539 8e73 31bb
000001a0: 97a3 d5bb 2671 64bc e4c4 813b 031a d2bb
000001b0: 0e82 8b3c 8692 cbbc 721e 2fbc a232 733b
000001c0: 3d22 99bc 5c36 5bbc e95f 49bc be4f 293c
000001d0: 839c e83c 0a4c 7bbc 8a38 a93b 299b 763b
000001e0: 2602 48bc 3c09 aa3c 32c3 46bc 82e6 9abb
000001f0: 4667 833b 8e17 78ba 853d 4c3c 16d0 01bc
00000200: bff0 3c3c 8471 fcbb f25c 9abc f953 4a3c
00000210: 522b 32bc 1b82 36bc 414c f3bc f6ff 04bc
00000220: 270c 1fbb 9254 a4bc ddca b53b fc23 ecbc
00000230: 1059 de3c 25ee b7bc 9b10 813c 73a7 bfbb
00000240: b40f 61bc 831c c0bc cbd8 473a f5d9 b0bc
00000250: dc45 9b3a ff46 593c b841 2bbb a52b e6bb
00000260: d1d7 723b c09f 67bc 40a8 3d3c 679a c13c
00000270: 2ce6 73ba e009 88bc 6f2d 11bb 5612 abbb
00000280: b296 073c 22de 56bc 0f6b 43bc cb15 b03a
00000290: 884f 223c b659 c43b 1089 a43b c9c7 b2bc
000002a0: 853b a1ba d520 413b b856 d0bb 2579 c0bc
000002b0: 92fc 453c 5dd1 e63b 9eb0 fbbb fd30 a13c
000002c0: d81a ee3b 1633 a33b 6743 4a3c f3a1 b5bc
000002d0: a383 57bc 12de e43b e285 f23b 9c51 4a3b
000002e0: f71b 4bbb cd28 fdbb f26f ad3c 0237 273c
000002f0: 744d 2c3c e0e5 f2bb 5603 d23c 3695 8ebb
00000300: 7ca7 ce3a 887c 943c 46cd 9f3a 909d c33c
00000310: 5eb2 df3a d054 f13c ba5b 993c 20dd aabb
00000320: 4f7e 10bc 3b17 24bb 327f 113b f38d 1e3c
00000330: a334 d13c 206e 903c 6ef0 cd3a 5f4c a63c
00000340: d94d 8b3b 7b13 bfbb c7d4 b93b a21d ae3c
00000350: 0343 acbc ba69 bd37 7fdc 0939 0102 8bbc
00000360: 168c 9cbb b253 6b3c 836e 983b cae9 9b3c
00000370: 6f51 263b 9f32 b7bc 2281 11bb 0c9c a13b
00000380: ab56 b3bb 3630 443b b676 2e3c 003f 9a3c
00000390: 8b56 2e3b 26a7 03bb 3f2b 75bc f132 75bc
000003a0: b94f 203b 1531 803c ab8c 903c dd4e 813b
000003b0: c5f0 ae3c 9db5 893c 5efd 07bc d6f4 cf3a
000003c0: 8bef cc3b 8cf4 0cbc 4918 4e3b 7ecd 6b3b
000003d0: 53ff 36bb ab48 3e3c c610 ddbb 1353 debc
000003e0: eada f2bb 3cfb 9d3b 0648 ed3b 2877 963c
000003f0: ee2d 11bc cd4f 3b3b 0368 e0bc a95c 48bc
-0.009591755 0.005390328 0.02744621 0.005072118 0.019764028 0.023884552 0.014722581 0.03420343
0.013154281 -0.013528525 -0.004942457 0.009328968 0.01313391 -0.010108388 0.01852213 -0.003290424
0.0125527065 -0.011887343 0.0003619503 0.0016773773 -0.004276142 0.009076949 0.012141647 0.008008814
-0.008403838 -0.004144988 0.013011162 -0.011843451 -0.0018466417 -0.0048689963 0.010478239 0.008889525
-0.010880845 0.00011080859 -0.005067427 0.0019928662 0.021303583 0.0014238509 0.012786777 -0.0004984885
-0.0049514 0.008402881 -0.0045644683 -0.017055364 -0.004188201 -0.014799692 -0.007898377 0.0007851194
0.018293913 -0.003225723 0.00078633835 0.008550197 0.0120097445 0.028563268 0.0043130117 -0.001983284
-0.0033818083 -0.016457988 -0.018976402 -0.025434846 -0.007383348 -0.0017743631 0.010729666 -0.011440902
0.012483459 -0.007456089 -0.004498941 -0.024120139 0.0040674307 0.006795461 -0.016591117 -0.010129242
0.0052872407 0.0016750995 -0.0010895258 0.0032462853 -0.017582973 -0.015173848 0.01923714 -0.007280869
0.00062710594 0.008466874 -0.014795176 0.006432194 -0.00968256 0.011945222 0.01142041 0.004918892
0.007252568 -0.009026466 0.0024302988 -0.0005985609 -0.007663661 0.029635767 0.00033886757 0.0035832583
0.0026580587 -0.010027463 0.0030024166 0.006132299 0.027932856 0.009392313 0.00037639937 -0.0027076933
-0.0065197456 -0.013942992 0.003960239 -0.0064117922 0.017029788 -0.024850141 -0.010688411 0.0037109037
-0.018693084 -0.0133796595 -0.012290933 0.010333953 0.028394943 -0.015337953 0.0051642107 0.0037629104
-0.0122075435 0.020756356 -0.012131499 -0.0047271857 0.004010114 -0.0009463959 0.012465839 -0.007923147
0.011532008 -0.007703962 -0.018843148 0.012349122 -0.010874586 -0.011139418 -0.029699447 -0.0081176665
-0.0024268718 -0.020059858 0.005547865 -0.028825752 0.027142078 -0.022452423 0.015754988 -0.005848819
-0.013736654 -0.023451095 0.0007623552 -0.021588305 0.0011846381 0.013261556 -0.00261317 -0.007024246
0.0037054906 -0.014137208 0.011575758 0.023633195 -0.00093040126 -0.016606271 -0.0022152325 -0.0052206917
0.008275675 -0.013114484 -0.01192738 0.0013434229 0.009906657 0.0059921397 0.005021222 -0.02182378
-0.0012301063 0.0029469032 -0.006357994 -0.023495266 0.012084143 0.007044001 -0.0076809665 0.01967668
0.0072663836 0.004980455 0.0123451715 -0.02217195 -0.013153943 0.0069844807 0.007401214 0.0030871397
-0.003099201 -0.007725811 0.021171544 0.010205986 0.010516513 -0.007412657 0.025636356 -0.0043512834
0.0015766467 0.018125787 0.0012191914 0.023878843 0.0017066707 0.029459387 0.018720496 -0.0052143484
-0.008819177 -0.002503826 0.0022201058 0.009677398 0.025537794 0.017630637 0.0015711912 0.020300088
0.0042512235 -0.0058311797 0.005671117 0.021254364 -0.021028047 2.2579788e-05 0.0001314748 -0.016968729
-0.0047774417 0.014363216 0.004651846 0.019032378 0.0025378128 -0.022363005 -0.0022202213 0.0049319323
-0.005472978 0.0029935963 0.01064842 0.018828869 0.0026601877 -0.0020088642 -0.014963924 -0.014965759
0.002446158 0.015648404 0.0176452 0.003946169 0.021355042 0.016810233 -0.008300154 0.0015865813
0.0062541417 -0.008603226 0.003144758 0.0035980637 -0.0027923181 0.011614005 -0.0067463843 -0.027139222
-0.0074113505 0.0048212092 0.007241252 0.018367365 -0.008861048 0.00285815 -0.027393347 -0.012229123

predictor/l3/b f4 [6]
00000000: 28e4 c63b 7837 c63a 2af3 2c3b 008d 75ba
00000010: c907 2c39 4d2c 0c3b
0.006069679 0.0015122732 0.0026390054 -0.0009367019 0.00016406098 0.002138871

predictor/conv2/W f4 [64, 16, 3, 3]
00000000: 27a6 ff3d 5764 793c ec57 73bc 48ff e8bd
00000010: 1525 1bbe 9ea5 b53d 9bff ccbd c972 15be
00000020: e872 d4bd ccf9 e0bd ee90 2ebd 69ab 01bc
00000030: 81e0 d93c 4287 25bd 6a86 673d 8d30 883d
00000040: 1bed a9bc fc78 283e 90b9 d23c ea1a 3e3c
00000050: b909 a83d a6ee 353d 1a0e 1dbe 1975 53bb
00000060: 6a41 b8bd c2cd fdbb 7584 e33b 5c8c 61bd
00000070: ccae 14bd 0949 23bd 25b7 df3b ae8a 5e3d
00000080: c8df 8bbd 9c3b 783d 6ea9 5b3d ae27 f2bd
00000090: c3dc 123c 2281 dd3d 35bf a13d 6f50 c8bd
000000a0: db29 b73d 33c9 daba d9ab 693d 5ca5 893b
000000b0: b944 d4bd 2c54 033e 3474 863b fd4c 833d
000000c0: 9fec 27bd 4253 8fbd 0a44 2dbd 5309 fd3c
000000d0: 4324 1bbd 411f 433c 8aaf ba3d 8936 67bd
000000e0: aef5 ef3d 0f07 ac3d 2ec2 bfbd ad87 b2bd
000000f0: b8a4 a03d 97c7 e33c 7dab 37be b85f be3d
00000100: f00e 1bbe 8cef b9bb 2151 c2bc 9752 3dbd
00000110: ec69 3b3d f329 89bd 8952 063b 8ad4 e1bb
00000120: 52db 0b3d c465 c6bd 7fa2 3abe 97e7 533d
00000130: 8706 ca3d bcb2 b53d 5cc9 8c3c 4c39 3dbc
00000140: 43df 333e 6fbe 53bd 7df9 3ebd c357 0f3e
00000150: c87b 9fbb 45a2 a03c e6fb ad3d 668c 57bd
00000160: c86c d73d f3dd b43d 9acf 013d 5c40 ebbc
00000170: ea4d a13d a506 1c3c 6cc1 96ba e4e4 053c
00000180: bd4a 01be a704 d23d 5483 783c 75fe 8abc
00000190: 43fe 27be 8cc9 b63d 3e08 c33d f21c d4bc
000001a0: 619a 4fbd d7a2 c1bd d875 03be 7432 d53d
000001b0: b273 83bd 7cd0 1e3d 16e3 843d 3c1c e83c
000001c0: 7fe3 513c 6618 bb3d 9bcc 07be 6d31 5abc
000001d0: c799 8bbd 1e62 a73d 0faf f83b 4d65 0ebd
000001e0: e7d3 863d 30a2 803d 261c aebd d4f7 4abd
000001f0: 8145 08bd aa89 13be 1d21 2bbd ab71 833c
00000200: 4083 9bbd 1b65 dabd 8208 b2bd 6ae4 353c
00000210: 694a 7d3b bfb2 1ebc 4fa0 a43d 5a40 1a3d
00000220: ddc5 d5bd f719 e3bd 1e35 a0bd 95c7 50bd
00000230: 32c4 34bc c644 e4bc 8959 c03d 7a8f 23bd
00000240: 82cc 3cbd b783 cc3c 1fdd 0b3e a9a5 c03d
00000250: acde bfbd a6f7 243d fdfd 1abe 456f 00be
00000260: 8ae4 b43d f08c 0dbd 4544 e9bc cd2c f33d
00000270: c698 6d3c 2f3f 253d ced6 733d 7d40 f43d
00000280: c928 0e3e 09bd 99bd 00df 15bc b72b 1cbd
00000290: 877d b23c 0420 c1bd a897 0fbe c5a8 48bd
000002a0: a287 b3bc d157 f63c aa7a dd3d 8cf0 343a
000002b0: 8cf6 dcbd e2cb a83d d82b 913b 2118 49be
000002c0: 8979 1b3d 3559 cdbd fa23 b3bc be90 91bd
000002d0: 3e20 083b 018f 213e af66 e4bd a5a9 f7bd
000002e0: f666 06be cbd4 263d bdcf c1bd 9e7d 0a3d
000002f0: ec82 1c3c 14f6 133e 2a9b b73d 8294 b63c
00000300: 29b7 1abd 5ef5 1a3e 5818 96bd 2657 7dbc
00000310: 1a57 9abd 3cf0 a23b 8f18 b8bd ece2 02be
00000320: 8844 5bbd 7437 a2bd fcb6 f03d 002c 44bd
00000330: 21ae 08bd 4ddb b43d 046e b93d cf39 ea3c
00000340: 49d8 643d 80da 55bd b98a b63d 9af4 b2bc
00000350: 0d67 013e 56bd 8ebd 1226 fabd 9777 933c
00000360: 033e 16be e0f2 b9bc 0c9d b4bc b7aa 40bd
00000370: 9e14 893c 8307 993c 2c34 fc3c 2d55 0cbe
00000380: 4afa f8bd 48ad 00bc 5b4c 053c 1641 103e
00000390: 6686 013e 016b 443e 7001 e7bd 450f 8fbd
000003a0: 2493 1b3e 16fd a7bd 22a7 e73c afe5 173e
000003b0: 7eac ce3b 1203 943d 4971 ee3d d35e 6cbd
000003c0: 6851 cebd 450e 0dbe e20a 20bc 6057 73bd
000003d0: c4f6 473d 5ec8 ecbd aa97 2c3c fd14 a73b
000003e0: 6faa fb3d b50e cb3c 3592 abbd 6eb2 93bc
000003f0: afff d83d 535b 57bc 63d1 bebd 321d 173d
0.12482863 0.015221677 -0.014852505 -0.11376816 -0.15150864 0.088694796 -0.100096904 -0.14594568
-0.10373479 -0.10985145 -0.042618684 -0.0079144025 0.02659631 -0.040412195 0.05652467 0.06649885
-0.020742944 0.16452402 0.025723249 0.0116030965 0.082049794 0.044417046 -0.1533741 -0.003226584
-0.08996852 -0.0077454755 0.0069432803 -0.055065498 -0.03629951 -0.039864574 0.0068272525 0.054331474
-0.06829792 0.060603723 0.053628378 -0.118239745 0.0089637665 0.10815646 0.07897798 -0.097809665
0.0894353 -0.0016692042 0.057048652 0.0042006206 -0.1036467 0.12825078 0.004103208 0.06411169
-0.040997144 -0.06998302 -0.042301215 0.030888235 -0.03787638 0.011909307 0.09115513 -0.056448493
0.117167816 0.08399784 -0.09363209 -0.08717284 0.078439176 0.027805133 -0.17936511 0.09295601
-0.15142417 -0.005674308 -0.023720326 -0.046221342 0.04575531 -0.06697454 0.0020495972 -0.0068917917
0.034144707 -0.09687379 -0.1822605 0.051734533 0.09864526 0.088719815 0.01718586 -0.011549305
0.17565636 -0.051695284 -0.04662465 0.13998322 -0.004867051 0.019608626 0.084953114 -0.05262413
0.10518795 0.08831396 0.031692125 -0.028717212 0.07876189 0.009523069 -0.0011501736 0.008172248
-0.12626167 0.102547936 0.01516803 -0.016967038 -0.16405587 0.08925161 0.095230564 -0.025892708
-0.050684337 -0.09454887 -0.12837923 0.10410014 -0.064185515 0.038773045 0.06488626 0.028333776
0.012810587 0.09135513 -0.13261645 -0.013317448 -0.0681644 0.08173011 0.007589228 -0.034764577
0.06583386 0.06280935 -0.08501463 -0.049552754 -0.03326941 -0.14407983 -0.041779626 0.016045412
-0.07593393 -0.106638156 -0.08693029 0.011101821 0.0038649088 -0.009686171 0.08038389 0.037659027
-0.1043813 -0.11088937 -0.07822631 -0.050971586 -0.011033105 -0.027864825 0.093920775 -0.03993175
-0.04609347 0.02496515 0.1365857 0.09406597 -0.09368643 0.04027524 -0.15135951 -0.12542446
0.08832653 -0.034558237 -0.028474936 0.118737794 0.014501756 0.04034346 0.059531026 0.11926363
0.13882746 -0.07506759 -0.009147406 -0.038127627 0.021788372 -0.094299346 -0.14022696 -0.048989076
-0.02191526 0.030071171 0.10814412 0.00069022994 -0.107892126 0.082420126 0.0044302754 -0.1963811
0.0379577 -0.100267805 -0.02186774 -0.071076855 0.002077117 0.15777208 -0.11152398 -0.12092904
-0.13125214 0.04073028 -0.09463451 0.033811204 0.009552699 0.1444934 0.08965142 0.02228761
-0.03777233 0.15132663 -0.07328862 -0.015462672 -0.075361446 0.004972486 -0.08989059 -0.12781876
-0.053532153 -0.07920733 0.117536515 -0.047893524 -0.033369187 0.08830891 0.09054187 0.028592018
0.055870328 -0.05221033 0.08913178 -0.02184515 0.12636967 -0.06969707 -0.122142926 0.01800136
-0.14672093 -0.02269882 -0.022047542 -0.047037806 0.016733464 0.01868034 0.030786596 -0.13704367
-0.12157114 -0.0078538135 0.00813588 0.14087328 0.12648925 0.19181444 -0.11279571 -0.06985334
0.15192848 -0.08202569 0.028277937 0.14833711 0.0063071838 0.07227148 0.11642701 -0.05770762
-0.10074121 -0.13774975 -0.00976822 -0.0594095 0.04881932 -0.115616545 0.010534206 0.0050989375
0.12288367 0.024787286 -0.08377496 -0.018029418 0.10595643 -0.013144332 -0.09317281 0.036893077

predictor/conv2/b f4 [64]
00000000: b2d1 9abc 7b10 46bc 7786 49bc df81 913b
00000010: b86f 79bc 931d c4bb 3337 acbb 4602 babc
00000020: 83a9 2bbc 93d6 5ebc ab8d 54bc 04c1 62bc
00000030: 1dbe 8fbc 598d f7ba 654d 0dbc 78c6 b0bc
00000040: 9dde c3bb 6f69 aabc 644e 31bc 2f7b 1dbc
00000050: 3c89 7abc d6ed 87bb c5e7 15bc 19bb 0a3c
00000060: 5cb9 8abc 707d 93bc 4ad3 79bc 8696 42ba
00000070: d157 b9bc be74 86bb e5f4 d1bb 18a0 15bc
00000080: 356b 33bc cc47 313b 03b4 143c 85d5 17bb
00000090: 523c 37ba 405d 96ba 773b 99bb 66e4 663c
000000a0: 648e f93b 126f 8bbc c652 90bc 995a 66bc
000000b0: 5d16 84bc c1fc 91bc 2d45 a2bb 2351 763c
000000c0: 6dc6 81bc e42e fb3b bb96 b8bb 3a36 b6bc
000000d0: 112e c9bc 4c78 86bc 2894 86bc 7142 4fbb
000000e0: c766 70bc 900f 34bc 474d 03bc e459 aebc
000000f0: f9f3 99bc 5b80 55bc 0f42 90bc b26b 7cba
-0.018898819 -0.01208889 -0.012300125 0.0044405307 -0.01522439 -0.005984971 -0.0052556037 -0.022706162
-0.010477426 -0.013600963 -0.012973229 -0.013839964 -0.017546708 -0.0018886729 -0.008624409 -0.021579012
-0.0059774653 -0.020802228 -0.010821912 -0.009611889 -0.015291508 -0.0041482253 -0.009149496 0.008467459
-0.01693409 -0.01800415 -0.015248129 -0.00074229424 -0.022624882 -0.004103272 -0.0064073675 -0.009132408
-0.010950853 0.002705085 0.009076121 -0.002316804 -0.00069898844 -0.0011471882 -0.004676278 0.01409254
0.0076158512 -0.017020736 -0.017617594 -0.014059686 -0.016123945 -0.017820718 -0.004952094 0.015033993
-0.015841687 0.007665502 -0.005633203 -0.022242654 -0.024558099 -0.016414784 -0.016428068 -0.0031625296
-0.0146729415 -0.0109900385 -0.00801403 -0.021283098 -0.018793093 -0.013031091 -0.017609624 -0.0009629085
