ch8/Bill_train/result/out.model (npz, 1963 bytes, 6 tensors)

predictor/l3/b f4 [4]
1.2846929 0.6571503 -0.82013965 -1.5602344
00000000: d170 a43f 013b 283f acf4 51bf c3b5 c7bf

predictor/l3/W f4 [4, 10]
-0.08683382 -0.36179006 -0.17360829 -0.19789104 -0.81866574 -0.0063746236 -0.026846336 -0.21590778
-0.0068647717 -0.11090841 -0.017212238 0.010321668 -0.39059532 0.01454738 0.19956835 0.18248871
0.011078764 -0.7250083 -0.34254718 0.5138965 0.047125846 -0.4386594 -0.37985212 0.7295298
-0.3751703 -0.8133398 -0.22955719 -0.2938179 -1.0174813 0.19846274 0.25634366 0.14040142
0.13339478 -0.1536541 0.33283192 0.37436977 -0.22844435 0.3741376 -0.120559745 -0.10044478
00000000: eed5 b1bd 8c3c b9be 5fc6 31be f3a3 4abe
00000010: 1494 51bf 38e2 d0bb d9ec dbbc ee16 5dbe
00000020: e1f1 e0bb f323 e3bd ae00 8dbc 371c 293c
00000030: 1cfc c7be 2258 6e3c a55b 4c3e 52de 3a3e
00000040: b483 353c 259a 39bf 5862 afbe b98e 033f
00000050: 0807 413d f797 e0be fa7b c2be 77c2 3a3f
00000060: 5216 c0be 0a37 50bf 0a11 6bbe 4d6f 96be
00000070: d43c 82bf d139 4b3e 7a3f 833e 64c5 0f3e
00000080: a498 083e 8057 1dbe f268 aa3e 65ad bf3e
00000090: 51ed 69be f78e bf3e 07e8 f6bd feb5 cdbd

predictor/l1/b f4 [10]
0.0 0.0 -0.49870035 0.7971028 0.0 -0.035870276 0.0 -0.17981778
0.68752587 0.57620597
00000000: 0000 0000 0000 0000 a755 ffbe ee0e 4c3f
00000010: 0000 0000 b6ec 12bd 0000 0000 2722 38be
00000020: b201 303f 3c82 133f

predictor/l1/W f4 [10, 4]
-1.2056054 0.57052016 -0.061855204 -0.7239879 -0.06562509 -0.504947 0.13982797 0.06388846
0.38338596 0.57385856 -0.64990693 0.65703374 -0.6964013 0.72114533 -0.21313849 0.6256333
-0.5112987 -0.4541405 -1.5388385 -0.17975007 0.16363007 -0.6593804 0.18001367 0.65778464
-0.41126263 0.12620647 -0.83679193 -0.16943622 -0.3929107 0.911103 -0.07208572 -0.39425987
0.5031929 0.33676478 0.44922084 -0.26893196 -0.7624035 0.028437587 0.20456278 0.6529532
00000000: 4751 9abf 9c0d 123f e25b 7dbd 4557 39bf
00000010: 7266 86bd 3544 01bf 102f 0f3e f4d7 823d
00000020: 2a4b c43e 65e8 123f 4d60 26bf 5d33 283f
00000030: 5b47 32bf fb9c 383f fa40 5abe 8129 203f
00000040: 79e4 02bf 1b85 e8be a9f8 c4bf 6710 38be
00000050: a48e 273e 27cd 28bf 8155 383e 9364 283f
00000060: 0491 d2be 453c 013e ff37 56bf b080 2dbe
00000070: 972b c9be 0c3e 693f aea1 93bd 6edc c9be
00000080: 40d1 003f 6f6c ac3e 4600 e63e 73b1 89be
00000090: e02c 43bf f1f5 e83c e878 513e f127 273f

predictor/l2/b f4 [10]
-0.029743018 -0.081060484 -0.018055692 0.83083254 0.0 -0.071240716 -0.09131742 -0.033368547
-0.0841519 0.0
00000000: a1a7 f3bc 0a03 a6bd 88e9 93bc 71b1 543f
00000010: 0000 0000 a7e6 91bd a104 bbbd 75ad 08bd
00000020: d557 acbd 0000 0000

predictor/l2/W f4 [10, 10]
-0.023964016 -0.40135345 0.16963536 -0.20697372 -0.3217923 -0.095705554 -0.15536942 -0.47708145
-0.37488365 -0.2267312 -0.07446902 -0.65542567 0.108662345 0.27499628 0.47339892 -0.32817098
-0.010965174 -0.43323907 0.028276213 -0.59155375 -0.4599052 -0.18106554 0.06588523 0.14204924
0.17845635 -0.0050079944 -0.07475876 0.13313027 -0.33152974 -0.22760014 -0.30153552 -0.05470082
-0.28337273 0.29352385 0.23462892 -0.11116151 -0.055407804 -0.22247964 0.33065757 0.20171346
-0.4396728 0.1966328 -0.22690544 -0.16182707 0.10037307 -0.5914213 0.3373185 0.12856603
-0.6231057 0.07924954 -0.09846929 -0.24700837 -0.28898743 -0.34035912 0.21841092 0.082670875
0.34126633 0.25927624 0.18888254 0.6428194 0.23155129 0.8747168 -0.6799064 -0.3046351
0.13095793 -0.3419994 -0.2731761 -0.18856204 0.121124096 -0.046252232 -0.077245966 -0.33606628
-0.04601014 -0.12809777 0.30837727 -0.21815021 0.034842983 0.1447559 -0.110496975 0.4178287
0.55624884 -0.19929068 -0.12702836 -0.2336225 -0.13681652 -0.5788382 -0.25963962 -0.020880181
0.18064272 0.31081554 0.03703377 -0.30732024 0.049593765 -0.085591204 0.13768016 -0.34701493
-0.12534814 -0.12217834 -0.20101796 0.03873141
00000000: 2f50 c4bc 337e cdbe e4b4 2d3e ebf0 53be
00000010: f6c1 a4be 4601 c4bd 2919 1fbe 0544 f4be
00000020: c0f0 bfbe 392c 68be 3783 98bd fac9 27bf
00000030: 5d8a de3d 50cc 8c3e 5861 f23e 0706 a8be
00000040: 46a7 33bc 83d1 ddbe 84a3 e73c 1170 17bf
00000050: b278 ebbe 3f69 39be d6ee 863d 5b75 113e
00000060: 43bd 363e 1a1a a4bb 1f1b 99bd 4d53 083e
00000070: 44be a9be 0310 69be dd62 9abe f80d 60bd
00000080: 3b16 91be c248 963e 9042 703e a5a8 e3bd
00000090: 4bf3 62bd b4d1 63be f34b a93e f98d 4e3e
000000a0: cb1c e1be 1c5a 493e e659 68be ffb5 25be
000000b0: 6590 cd3d 6367 17bf 03b5 ac3e d0a6 033e
000000c0: db83 1fbf 954d a23d 44aa c9bd c3ef 7cbe
000000d0: 29f6 93be 8d43 aebe 1da7 5f3e 594f a93d
000000e0: 76ba ae3e dbbf 843e 6d6a 413e d08f 243f
000000f0: c81b 6d3e 71ed 5f3f 590e 2ebf 22f9 9bbe
00000100: d619 063e 8c1a afbe bddd 8bbe 6816 41be
00000110: e90f f83d fb72 3dbd 2233 9ebd e110 acbe
00000120: 2175 3cbd 102c 03be a0e3 9d3e c562 5fbe
00000130: 84b7 0e3d e43a 143e 3d4c e2bd a5ed d53e
00000140: 5366 0e3f db12 4cbe b913 02be bd3a 6fbe
00000150: a119 0cbe be2e 14bf 7cef 84be ea0c abbc
00000160: 68fa 383e 3723 9f3e b9b0 173d 1459 9dbe
00000170: d522 4b3d 714a afbd 07fc 0c3e f1ab b1be
00000180: 435b 00be a338 fabd a7d7 4dbe d4a4 1e3d
