ch10/Gesture_test/result/RNN.model (npz, 639357 bytes, 44 tensors)

l2/W f4 [128, 256]
0.02308107 -0.08289784 -0.00012246368 -0.034785397 -0.028564597 -0.0637357 0.050052978 0.056876175
0.07318494 0.04859862 -0.11907428 -0.019206863 -0.03283542 0.19470353 -0.030065399 0.094568595
-0.05431824 0.005099465 0.0006846486 0.11905397 0.052359417 -0.041051365 -0.09328878 0.16729261
-0.10823861 -0.0757397 -0.060306493 0.107588075 -0.02432999 0.104332276 0.05277782 -0.03949657
0.10813004 -0.00022956684 -0.0012175654 -0.096751235 -0.010595987 0.05749033 -0.10356877 0.122503154
-0.036005035 0.012626408 -0.08514845 -0.0034545287 0.025151273 0.025631562 0.11839305 -0.019407414
0.14319696 0.12339768 -0.03277062 -0.103075415 -0.060954385 0.0036807212 -0.08777553 -0.15992485
0.02176792 -0.034025252 0.10279666 0.06388722 0.007263087 0.18700595 0.05696158 -0.10699554
0.072155796 -0.0067457184 -0.08348569 0.010879918 -0.1815659 0.022700557 -0.053678967 -0.062224336
-0.12060156 -0.025751116 -0.14512236 -0.059949014 0.070321366 -0.042120054 0.13047019 0.04456689
0.20926648 -0.026700154 0.057058923 -0.14118397 -0.016455896 -0.007318228 0.10658704 -0.08376111
0.048783865 0.059031576 0.058596488 -0.062774174 -0.014294909 0.15241398 -0.07931792 0.16895372
0.07548929 -0.06434453 -0.08276027 0.059846506 -0.10699001 0.01265244 0.01616249 -0.050381605
0.067469746 -0.046525735 -0.033186793 0.03303406 0.07489106 -0.008765269 0.012064684 0.011077816
0.013814424 -0.03936699 0.13622056 0.06458207 0.03965111 0.18315856 -0.01165969 0.038824603
-0.009467894 0.010909179 -0.016489489 -0.13163151 0.043563895 -0.13260598 0.08566305 0.017245414
-0.057290576 -0.032581564 0.13330302 0.056852117 0.13508642 -0.14793625 -0.023580948 -0.123947024
0.012820872 0.043976754 0.15469998 -0.054284956 -0.07142923 0.17118223 0.15743424 -0.1490292
0.07365062 0.0038245535 0.04132294 0.06469106 -0.21242565 0.0774868 -0.011000352 -0.17788202
0.01659568 0.07599746 0.13027507 0.008377138 0.111632004 0.0667364 0.08861506 0.0352914
0.04922754 -0.05638596 0.04036454 -0.016386118 0.035327036 0.009763828 -0.17956352 -0.123763084
-0.051408693 0.026845312 0.18295623 -0.083375596 -0.016947994 -0.04121349 -0.08372715 -0.044856094
0.012929192 0.027682193 -0.07806017 0.075213976 0.09870795 -0.11449824 -0.071540296 -0.03305251
-0.10312388 -0.17641774 0.12044755 -0.11379478 -0.0018216518 -0.106773496 -0.015588443 -0.17519523
-0.028516734 0.09798219 -0.0219705 0.11364802 0.025039706 -0.08153396 0.35771695 0.22364357
-0.07963996 -0.050969876 -0.10094668 -0.09222654 0.10035738 0.17562142 -0.04885607 0.14496547
0.030354148 0.027269125 -0.13289663 0.023786927 -0.08184875 0.07391979 0.21364294 -0.21684085
-0.005996321 0.064922266 -0.01623704 0.08592965 -0.04736283 -0.063300095 -0.2609151 -0.029195644
-0.06536734 -0.20831129 -0.064638294 0.121339604 -0.092908815 -0.025354525 0.018600505 -0.023359302
0.13777803 -0.06152239 0.12974937 0.0742232 0.036826033 -0.02944388 -0.028798155 0.13786738
0.101970896 -0.07483045 -0.07048627 0.13388817 -0.12298603 -0.037252456 0.15864766 0.013418383
0.056683093 0.013617704 0.14084202 0.046838917 0.07347758 -0.03804756 -0.1539522 -0.07898818
00000000: 8314 bd3c 58c6 a9bd 9869 00b9 227b 0ebd
00000010: 4d00 eabc dd87 82bd 5a04 4d3d fef6 683d
00000020: fce1 953d 590f 473d 37dd f3bd b657 9dbc
00000030: 6f7e 06bd 5d60 473e b64b f6bc 2ead c13d
00000040: ce7c 5ebd 6a19 a73b fd79 333a 91d2 f33d
00000050: d476 563d 7a25 28bd 300e bfbd c14e 2b3e
00000060: 34ac ddbd 6a1d 9bbd f103 77bd 2357 dc3d
00000070: b04f c7bc 29ac d53d 8e2d 583d 28c7 21bd
00000080: 4873 dd3d e1b7 70b9 b796 9fba 8325 c6bd
00000090: ca9a 2dbc fb7a 6b3d dd1b d4bd efe2 fa3d
000000a0: 047a 13bd fede 4e3c 5062 aebd 6065 62bb
000000b0: 0b0a ce3c 48f9 d13c 0e78 f23d 4cfc 9ebc
000000c0: 39a2 123e ecb7 fc3d 7c3a 06bd 3419 d3bd
000000d0: 4eab 79bd 4138 713b a8c3 b3bd 57c3 23be
000000e0: a352 b23c 105e 0bbd 0e87 d23d 4ed7 823d
000000f0: 31ff ed3b 7d7e 3f3e 8c50 693d 7a20 dbbd
00000100: 6bc6 933d 300b ddbb 8cfa aabd af41 323c
00000110: 69ec 39be 85f6 b93c 7ade 5bbd f2de 7ebd
00000120: f3fd f6bd 01f4 d2bc f59a 14be 198d 75bd
00000130: a604 903d 1486 2cbd fa99 053e c58b 363d
00000140: f449 563e 48ba dabc 9eb6 693d 8892 10be
00000150: 84ce 86bc bfcd efbb 4e4a da3d f28a abbd
00000160: 97d1 473d 18cb 713d df02 703d bf8f 80bd
00000170: 3235 6abc 6912 1c3e 6f71 a2bd 3402 2d3e
00000180: 219a 9a3d 11c7 83bd 377e a9bd 9c21 753d
00000190: 941d dbbd 2e4c 4f3c 3367 843c f15c 4ebd
000001a0: 942d 8a3d c591 3ebd e0ee 07bd b94e 073d
000001b0: 7c60 993d 349c 0fbc f4aa 453c ba7f 353c
000001c0: e555 623c 483f 21bd 677d 0b3e 9b43 843d
000001d0: 3469 223d eb8d 3b3e 4908 3fbc 8c06 1f3d
000001e0: 3a1f 1bbc 6abc 323c f714 87bc 69ca 06be
000001f0: 0e70 323d ddc9 07be 1c70 af3d 4146 8d3c
00000200: 86a9 6abd 3f74 05bd 9680 083e c4dd 683d
00000210: 1854 0a3e 9a7c 17be d52c c1bc f0d7 fdbd
00000220: a20e 523c f820 343d ac69 1e3e e759 5ebd
00000230: 7d49 92bd 654a 2f3e 7136 213e 1c9b 18be
00000240: 23d6 963d 5ca5 7a3b 3e42 293d bf7c 843d
00000250: 1c86 59be 66b1 9e3d d23a 34bc b426 36be
00000260: aaf3 873c 8ea4 9b3d d466 053e 4340 093c
00000270: 529f e43d 18ad 883d d07b b53d b78d 103d
00000280: d1a2 493d f7f4 66bd 4a55 253d 2e3c 86bc
00000290: 15b3 103d 76f8 1f3c 80df 37be 8077 fdbd
000002a0: ec91 52bd b3ea db3c e158 3b3e d3c0 aabd
000002b0: 85d6 8abc 7acf 28bd 2479 abbd 06bb 37bd
000002c0: f6d4 533c c4c5 e23c 03de 9fbd c909 9a3d
000002d0: 6527 ca3d 0e7e eabd b883 92bd 1262 07bd
000002e0: 9d32 d3bd daa6 34be 35ad f63d 3d0d e9bd
000002f0: 7ec4 eeba 10ac dabd ab66 7fbc 6166 33be
00000300: ed9b e9bc e3aa c83d 7afb b3bc 4bc0 e83d
00000310: 1220 cd3c 47fb a6bd ad26 b73e d202 653e
00000320: 461a a3bd cac5 50bd 22bd cebd 45e1 bcbd
00000330: 2c88 cd3d 1ad6 333e 4d1d 48bd d471 143e
00000340: 43a9 f83c 8063 df3c 0e16 08be cddc c23c
00000350: 51a0 a7bd 4263 973d 37c5 5a3e 870b 5ebe
00000360: c97c c4bb f7f5 843d 8a03 85bc e2fb af3d
00000370: 87ff 41bd 7ba3 81bd aa96 85be b42b efbc
00000380: 50df 85bd 8e4f 55be 1561 84bd e680 f83d
00000390: fa46 bebd 4bb4 cfbc 1660 983c 025c bfbc
000003a0: af15 0d3e e7fe 7bbd 05dd 043e 5502 983d
000003b0: e5d6 163d 4b34 f1bc 1cea ebbc 1b2d 0d3e
000003c0: 1ed6 d03d b540 99bd 1b5b 90bd fb19 093e
000003d0: 1ae0 fbbd 0896 18bd 8874 223e c7d8 5b3c
000003e0: 882c 683d ca1c 5f3c e438 103e 2ada 3f3d
000003f0: 6a7b 963d c2d7 1bbd a5a5 1dbe 8ec4 a1bd

l2/b f4 [128]
-0.004020271 0.0038785776 0.006486183 -0.006049843 -0.008038713 -0.024170445 -0.05270132 -0.04295222
0.035320498 -0.025969263 0.006417761 -0.035941295 -0.034144662 0.057460975 -0.03141284 -0.005775268
0.04100312 0.020419594 0.03154044 0.0029862027 0.009210461 0.030677114 -0.005399009 0.017288072
0.0006098857 0.013716102 0.066782884 0.025064915 0.0022551334 0.003520637 -0.017159842 0.064413525
0.003632506 -0.029984722 0.022374254 0.010058443 0.05795328 0.034172762 0.015774308 0.01077806
0.05894615 0.019125318 0.010970016 0.00353957 0.028282486 0.03713565 0.014996687 0.0047932435
-0.0046384633 0.021180535 -0.045816988 0.011227426 0.02484446 -0.026923928 0.09209133 0.043775164
-0.0053390698 -0.0023939793 -0.013285852 -0.018742539 -0.004021543 0.022777012 -0.005276548 -0.02175887
0.049062774 -0.062225807 0.031632278 -0.014806093 0.021805992 -0.015693706 -0.018458288 -0.0007892013
0.00952909 -0.005941213 0.0044435314 0.013833273 0.043398414 0.039167583 0.008447314 -0.043302737
-0.004737228 -0.0039145774 0.016023912 0.0031019885 0.00454992 0.017052175 -0.0026726443 -0.001687493
-0.0007661552 0.017797733 0.008298854 0.03869516 -0.0009795873 0.009036406 0.0065214597 -0.0069402517
-0.017925793 -0.006830102 0.003852422 -0.016511306 -0.0049331565 0.06885191 0.0018677018 0.0057368265
-0.011078559 -0.013629515 -0.016239418 0.023852665 0.0052756765 0.06484833 0.031733107 0.00030775263
-0.020398434 0.0657035 -0.012446663 0.039157882 -0.0009067155 0.049041037 0.073315375 0.03983145
-0.07246583 0.011705463 -0.004428968 -0.015420943 -0.008112645 -0.0068432405 -0.0052507743 0.009268315
00000000: 7abc 83bb bc2f 7e3b 0c8a d43b c33d c6bb
00000010: ceb4 03bc 1901 c6bc 57dd 57bd abee 2fbd
00000020: 3aac 103d 7ebd d4bc 154c d23b 2e37 13bd
00000030: 46db 0bbd 335c 6b3d c0aa 00bd 763e bdbb
00000040: e3f2 273d fe46 a73c 8c30 013d 2bb4 433b
00000050: 79e7 163c 924e fb3c 2cea b0bb b79f 8d3c
00000060: bde0 1f3a 80b9 603c 77c5 883d f054 cd3c
00000070: dcca 133b 7dba 663b cc92 8cbc 3deb 833d
00000080: 560f 6e3b 85a2 f5bc 364a b73c 2bcc 243c
00000090: 6b60 6d3d bdf8 0b3d 1f39 813c 7696 303c
000000a0: 8571 713d b3ac 9c3c 95bb 333c 21f8 673b
000000b0: acb0 e73c 8d1b 183d aab4 753c a410 9d3b
000000c0: 40fe 97bb cd82 ad3c 98aa 3bbd 3df3 373c
000000d0: 9c86 cb3c 928f dcbc 619a bc3d 964d 333d
000000e0: 5df3 aebb 4fe4 1cbb e7ac 59bc f489 99bc
000000f0: 26c7 83bb db96 ba3c e5e6 acbb a83f b2bc
00000100: 0cf6 483d 7de0 7ebd d990 013d 4195 72bc
00000110: 7ba2 b23c 1690 80bc d635 97bc 67e2 4eba
00000120: e61f 1c3c 82ae c2bb 0b9b 913b f4a4 623c
00000130: 89c2 313d 306e 203d 9a66 0a3c 365e 31bd
00000140: c03a 9bbb db45 80bb 9444 833c bb4a 4b3b
00000150: 7f17 953b 01b1 8b3c 8827 2fbb de2e ddba
00000160: ced7 48ba 8dcc 913c ebf7 073c d17e 1e3d
00000170: 7f65 80ba 6f0d 143c f8b1 d53b 0d6b e3bb
00000180: 1dd9 92bc 0ccf dfbb eb78 7c3b b842 87bc
00000190: 51a6 a1bb 3b02 8d3d accd f43a fdfb bb3b
000001a0: d882 35bc 544e 5fbc 8708 85bc aa66 c33c
000001b0: 95df ac3b 34cf 843d 93fa 013d dc59 a139
000001c0: 9e1a a7bc 8e8f 863d 17ed 4bbc 0464 203d
000001d0: a6b0 6dba 41df 483d 5f26 963d 4d26 233d
000001e0: f768 94bd 45c8 3f3c e020 91bb 1fa8 7cbc
000001f0: e6ea 04bc 433d e0bb b00e acbb 21da 173c

l3/W f4 [4, 128]
-0.1938635 0.05549608 0.3210496 -0.08122762 0.18697554 0.066868365 0.14423645 -0.24087773
0.01627725 0.16917363 -0.122900195 -0.04682642 0.045471247 -0.19906873 0.08342674 -0.116477974
-0.036905773 -0.18573819 -0.13952468 0.06159992 -0.09352495 -0.21463914 0.25417867 0.057690956
-0.054639135 -0.14848867 0.009233372 -0.12135722 0.008083366 -0.13705543 -0.025658352 -0.035232406
-0.27149042 0.037524115 -0.39930433 0.067689106 -0.09444503 -0.038905762 -0.24434303 -0.14560418
-0.053489204 0.042168915 -0.030216806 0.10148133 -0.13635096 -0.11501525 0.059097696 -0.009698199
0.27779618 -0.22971117 0.30151042 0.04181152 -0.23445447 0.24689586 -0.3819015 -0.24890637
-0.061304033 0.1783713 -0.20886375 -0.041489165 0.10253774 0.4403704 -0.057489175 0.24166182
-0.31707695 0.20771599 -0.2379456 0.090699986 -0.13454711 0.14128877 -0.26282373 -0.014691163
0.1342047 0.15297653 0.26034456 -0.005209789 0.23137549 -0.071656175 0.056449316 0.038384005
-0.07846802 -0.054746985 -0.06623026 0.06180805 0.023308396 0.044381063 -0.2666308 0.0035095538
0.12765078 0.026696667 -0.23633547 -0.07389484 -0.04395795 -0.032887038 -0.051049132 0.05490834
-0.027035713 0.026103307 0.038483184 -0.09624992 0.2275874 -0.15298109 0.05074592 0.060658656
-0.08032723 -0.22560434 0.22004686 -0.1284332 -0.22475837 -0.31372795 -0.121365026 0.08899824
0.12397599 0.23582588 0.01781211 -0.090452634 0.1511382 -0.08962073 -0.28281718 -0.35542104
-0.04795215 -0.08749897 -0.18339877 0.3466235 0.011599999 0.09074766 0.01853207 -0.21404743
-0.17939481 -0.1602704 0.10807855 -0.042752817 0.18992098 -0.038714428 -0.2248064 -0.28736362
-0.31306154 0.050626125 -0.011517765 -0.094753064 -0.044334933 0.22503978 -0.19748709 -0.051757168
0.0903418 0.14964506 -0.24937898 0.10040716 0.13453576 0.056913428 -0.023437869 -0.03098731
-0.13921405 0.0378214 0.299824 0.08773295 -0.001096067 0.117254265 0.16346258 0.35942072
-0.0821465 -0.04913773 -0.049722914 0.12382528 0.12474636 0.09790966 0.031086387 0.25289872
0.28452897 0.12185585 0.13038993 -0.028121267 -0.02811812 -0.031804655 0.18837854 -0.03152249
0.104031965 -0.021787109 -0.17724535 0.14347398 0.097149566 -0.07825794 0.32887754 0.18928993
0.23361002 -0.03992369 -0.03549067 -0.08946163 0.21670671 -0.005544347 -0.1071814 0.0029799822
0.040350247 -0.13115211 0.08952323 -0.10862141 0.20870951 0.06304597 -0.29171896 0.10677162
0.01456723 0.022145458 -0.18963604 0.07680041 0.13068374 0.13887776 0.26722756 -0.14799711
-0.11988971 -0.029166287 -0.10511247 0.0899762 0.2228498 0.18735172 0.12830766 0.17763665
-0.22787228 0.12439455 0.1458239 0.1844154 0.0011138077 -0.1413043 -0.06342859 0.0010012094
0.04558602 -0.04287212 0.15856077 -0.2626474 -0.037247248 0.39848655 0.0905295 0.033445273
-0.23421332 -0.021781007 0.09709866 0.13659777 -0.11218922 -0.097462475 0.22981872 -0.15258084
-0.052159812 0.17350127 -0.20029761 0.2465673 0.0024862764 0.11991609 0.3198689 0.033930052
-0.30371457 0.083515204 0.1944726 0.06577344 0.043188818 0.06790892 -0.20661198 -0.03355129
00000000: 2784 46be dc4f 633d 9d60 a43e ab5a a6bd
00000010: 8476 3f3e 48f2 883d b8b2 133e a7a8 76be
00000020: de57 853c da3b 2d3e 19b3 fbbd 0fcd 3fbd
00000030: 0f40 3a3d acd8 4bbe a3db aa3d 018c eebd
00000040: 822a 17bd 2732 3ebe 8fdf 0ebe 3350 7c3d
00000050: 028a bfbd 5dca 5bbe b523 823e 5a4d 6c3d
00000060: 49cd 5fbd 6a0d 18be 9247 173c 228a f8bd
00000070: 1870 043c 4258 0cbe 7731 d2bc db4f 10bd
00000080: cb00 8bbe e3b2 193d 9e71 ccbe 96a0 8a3d
00000090: 656c c1bd a65b 1fbd 0f35 7abe 4319 15be
000000a0: 7f17 5bbd 50b9 2c3d 3c89 f7bc 72d5 cf3d
000000b0: 969f 0bbe 1e8d ebbd 6d10 723d 32e5 1ebc
000000c0: 4d3b 8e3e 6839 6bbe 935f 9a3e 8e42 2b3d
000000d0: d514 70be 45d2 7c3e 9888 c3be 50e1 7ebe
000000e0: f019 7bbd f7a6 363e 61e0 55be 8bf0 29bd
000000f0: 4eff d13d 3b78 e13e c579 6bbd 3276 773e
00000100: e957 a2be 80b3 543e 03a8 73be eac0 b93d
00000110: b8c6 09be 01ae 103e d590 86be 34b3 70bc
00000120: f56c 093e e1a5 1c3e e24b 853e e1b6 aabb
00000130: b2ed 6c3e 79c0 92bd 6637 673d 8c38 1d3d
00000140: d7b3 a0bd 603e 60bd bba3 87bd 702a 7d3d
00000150: 40f1 be3c ebc8 353d d583 88be 8b00 663b
00000160: e3b6 023e f8b2 da3c ed01 72be 2e56 97bd
00000170: 400d 34bd 8fb4 06bd e518 51bd 91e7 603d
00000180: 007a ddbc 9ad6 d53c 8ba0 1d3d ae1e c5bd
00000190: ac0c 693e 13a7 1cbe f4da 4f3d 3675 783d
000001a0: 9a82 a4bd d304 67be f753 613e fe83 03be
000001b0: 0f27 66be f3a0 a0be 3a8e f8bd b644 b63d
000001c0: 20e7 fd3d 577c 713e b4ea 913c 3b3f b9bd
000001d0: f9c3 1a3e 138b b7bd 6acd 90be bff9 b5be
000001e0: 7969 44bd a932 b3bd e3cc 3bbe a378 b13e
000001f0: ec0d 3e3c e9d9 b93d 91d0 973c 402f 5bbe
00000200: 46b3 37be ec1d 24be 4958 dd3d 941d 2fbd
00000210: a57a 423e 0593 1ebd a633 66be 5321 93be
00000220: 9a49 a0be 575d 4f3d 02b5 3cbc e50d c2bd
00000230: 8c98 35bd d470 663e 0e3a 4abe 53ff 53bd
00000240: 1f05 b93d 8e3c 193e 345d 7fbe 45a2 cd3d
00000250: bec3 093e 0e1e 693d c600 c0bc 19d9 fdbc
00000260: 218e 0ebe 9dea 1a3d 8882 993e 55ad b33d
00000270: e8a9 8fba 0123 f03d bc62 273e fe05 b83e
00000280: 6d3c a8bd a544 49bd 41aa 4bbd 1c98 fd3d
00000290: 057b ff3d dc84 c83d e1a8 fe3c f17b 813e
000002a0: c8ad 913e 8f8f f93d f084 053e 925e e6bc
000002b0: f957 e6bc 9945 02bd 4ee6 403e ba1d 01bd
000002c0: b60e d53d e17a b2bc ce7f 35be d8ea 123e
000002d0: 5af6 c63d b345 a0bd a362 a83e 38d5 413e
000002e0: 7737 6f3e 0687 23bd aa5e 11bd a937 b7bd
000002f0: 5de8 5d3e 5bad b5bb ec81 dbbd ce4b 433b
00000300: 4d46 253d bd4c 06be f557 b73d e774 debd
00000310: f2b7 553e 3f1e 813d 305c 95be 14ab da3d
00000320: 64ab 6e3c 646a b53c f32f 42be 8949 9d3d
00000330: f5d1 053e f935 0e3e 0dd2 883e 8e8c 17be
00000340: bc88 f5bd 23ee eebc 3545 d7bd 7145 b83d
00000350: bd32 643e 21d9 3f3e 1563 033e 62e6 353e
00000360: 5a57 69be 92c2 fe3d dc52 153e 64d7 3c3e
00000370: 2ffd 913a 13b2 10be d9e6 81bd 033b 833a
00000380: 68b8 3a3d ad9a 2fbd c15d 223e b879 86be
00000390: 9290 18bd 6e06 cc3e 8867 b93d e9fd 083d
000003a0: 9ed5 6fbe 156e b2bc aadb c63d 49e0 0b3e
000003b0: 76c3 e5bd 689a c7bd 9955 6b3e 273e 1cbe
000003c0: 87a5 55bd 51aa 313e d11a 4dbe 237c 7c3e
000003d0: ccf0 223b 9196 f53d dbc5 a33e 3dfa 0a3d
000003e0: 7a80 9bbe 050a ab3d d323 473e 3ab4 863d
000003f0: c2e6 303d d513 8b3d 1792 53be 146d 09bd

l3/b f4 [4]
-0.1771916 0.1446211 -0.0061809234 0.038751215
00000000: b771 35be 8e17 143e 5889 cabb 98b9 1e3d

b1/gamma f4 [256]
0.99407816 0.99407816 0.99407816 0.99407816 0.99407816 0.99407816 0.99407816 0.99407816
0.99407816 0.99407816 0.99407816 0.99407816 0.99407816 0.99407816 0.99407816 0.99407816
0.99407816 0.99407816 0.99407816 0.99407816 0.99407816 0.99407816 0.99407816 0.99407816
0.99407816 0.99407816 0.99407816 0.99407816 0.99407816 0.99407816 0.99407816 0.99407816
0.99407816 0.99407816 0.99407816 0.99407816 0.99407816 0.99407816 0.99407816 0.99407816
0.99407816 0.99407816 0.99407816 0.99407816 0.99407816 0.99407816 0.99407816 0.99407816
0.99407816 0.99407816 0.99407816 0.99407816 0.99407816 0.99407816 0.99407816 0.99407816
0.99407816 0.99407816 0.99407816 0.99407816 0.99407816 0.99407816 0.99407816 0.99407816
0.99407816 0.99407816 0.99407816 0.99407816 0.99407816 0.99407816 0.99407816 0.99407816
0.99407816 0.99407816 0.99407816 0.99407816 0.99407816 0.99407816 0.99407816 0.99407816
0.99407816 0.99407816 0.99407816 0.99407816 0.99407816 0.99407816 0.99407816 0.99407816
0.99407816 0.99407816 0.99407816 0.99407816 0.99407816 0.99407816 0.99407816 0.99407816
0.99407816 0.99407816 0.99407816 0.99407816 0.99407816 0.99407816 0.99407816 0.99407816
0.99407816 0.99407816 0.99407816 0.99407816 0.99407816 0.99407816 0.99407816 0.99407816
0.99407816 0.99407816 0.99407816 0.99407816 0.99407816 0.99407816 0.99407816 0.99407816
0.99407816 0.99407816 0.99407816 0.99407816 0.99407816 0.99407816 0.99407816 0.99407816
0.99407816 0.99407816 0.99407816 0.99407816 0.99407816 0.99407816 0.99407816 0.99407816
0.99407816 0.99407816 0.99407816 0.99407816 0.99407816 0.99407816 0.99407816 0.99407816
0.99407816 0.99407816 0.99407816 0.99407816 0.99407816 0.99407816 0.99407816 0.99407816
0.99407816 0.99407816 0.99407816 0.99407816 0.99407816 0.99407816 0.99407816 0.99407816
0.99407816 0.99407816 0.99407816 0.99407816 0.99407816 0.99407816 0.99407816 0.99407816
0.99407816 0.99407816 0.99407816 0.99407816 0.99407816 0.99407816 0.99407816 0.99407816
0.99407816 0.99407816 0.99407816 0.99407816 0.99407816 0.99407816 0.99407816 0.99407816
0.99407816 0.99407816 0.99407816 0.99407816 0.99407816 0.99407816 0.99407816 0.99407816
0.99407816 0.99407816 0.99407816 0.99407816 0.99407816 0.99407816 0.99407816 0.99407816
0.99407816 0.99407816 0.99407816 0.99407816 0.99407816 0.99407816 0.99407816 0.99407816
0.99407816 0.99407816 0.99407816 0.99407816 0.99407816 0.99407816 0.99407816 0.99407816
0.99407816 0.99407816 0.99407816 0.99407816 0.99407816 0.99407816 0.99407816 0.99407816
0.99407816 0.99407816 0.99407816 0.99407816 0.99407816 0.99407816 0.99407816 0.99407816
0.99407816 0.99407816 0.99407816 0.99407816 0.99407816 0.99407816 0.99407816 0.99407816
0.99407816 0.99407816 0.99407816 0.99407816 0.99407816 0.99407816 0.99407816 0.99407816
0.99407816 0.99407816 0.99407816 0.99407816 0.99407816 0.99407816 0.99407816 0.99407816
00000000: e87b 7e3f e87b 7e3f e87b 7e3f e87b 7e3f
00000010: e87b 7e3f e87b 7e3f e87b 7e3f e87b 7e3f
00000020: e87b 7e3f e87b 7e3f e87b 7e3f e87b 7e3f
00000030: e87b 7e3f e87b 7e3f e87b 7e3f e87b 7e3f
00000040: e87b 7e3f e87b 7e3f e87b 7e3f e87b 7e3f
00000050: e87b 7e3f e87b 7e3f e87b 7e3f e87b 7e3f
00000060: e87b 7e3f e87b 7e3f e87b 7e3f e87b 7e3f
00000070: e87b 7e3f e87b 7e3f e87b 7e3f e87b 7e3f
00000080: e87b 7e3f e87b 7e3f e87b 7e3f e87b 7e3f
00000090: e87b 7e3f e87b 7e3f e87b 7e3f e87b 7e3f
000000a0: e87b 7e3f e87b 7e3f e87b 7e3f e87b 7e3f
000000b0: e87b 7e3f e87b 7e3f e87b 7e3f e87b 7e3f
000000c0: e87b 7e3f e87b 7e3f e87b 7e3f e87b 7e3f
000000d0: e87b 7e3f e87b 7e3f e87b 7e3f e87b 7e3f
000000e0: e87b 7e3f e87b 7e3f e87b 7e3f e87b 7e3f
000000f0: e87b 7e3f e87b 7e3f e87b 7e3f e87b 7e3f
00000100: e87b 7e3f e87b 7e3f e87b 7e3f e87b 7e3f
00000110: e87b 7e3f e87b 7e3f e87b 7e3f e87b 7e3f
00000120: e87b 7e3f e87b 7e3f e87b 7e3f e87b 7e3f
00000130: e87b 7e3f e87b 7e3f e87b 7e3f e87b 7e3f
00000140: e87b 7e3f e87b 7e3f e87b 7e3f e87b 7e3f
00000150: e87b 7e3f e87b 7e3f e87b 7e3f e87b 7e3f
00000160: e87b 7e3f e87b 7e3f e87b 7e3f e87b 7e3f
00000170: e87b 7e3f e87b 7e3f e87b 7e3f e87b 7e3f
00000180: e87b 7e3f e87b 7e3f e87b 7e3f e87b 7e3f
00000190: e87b 7e3f e87b 7e3f e87b 7e3f e87b 7e3f
000001a0: e87b 7e3f e87b 7e3f e87b 7e3f e87b 7e3f
000001b0: e87b 7e3f e87b 7e3f e87b 7e3f e87b 7e3f
000001c0: e87b 7e3f e87b 7e3f e87b 7e3f e87b 7e3f
000001d0: e87b 7e3f e87b 7e3f e87b 7e3f e87b 7e3f
000001e0: e87b 7e3f e87b 7e3f e87b 7e3f e87b 7e3f
000001f0: e87b 7e3f e87b 7e3f e87b 7e3f e87b 7e3f
00000200: e87b 7e3f e87b 7e3f e87b 7e3f e87b 7e3f
00000210: e87b 7e3f e87b 7e3f e87b 7e3f e87b 7e3f
00000220: e87b 7e3f e87b 7e3f e87b 7e3f e87b 7e3f
00000230: e87b 7e3f e87b 7e3f e87b 7e3f e87b 7e3f
00000240: e87b 7e3f e87b 7e3f e87b 7e3f e87b 7e3f
00000250: e87b 7e3f e87b 7e3f e87b 7e3f e87b 7e3f
00000260: e87b 7e3f e87b 7e3f e87b 7e3f e87b 7e3f
00000270: e87b 7e3f e87b 7e3f e87b 7e3f e87b 7e3f
00000280: e87b 7e3f e87b 7e3f e87b 7e3f e87b 7e3f
00000290: e87b 7e3f e87b 7e3f e87b 7e3f e87b 7e3f
000002a0: e87b 7e3f e87b 7e3f e87b 7e3f e87b 7e3f
000002b0: e87b 7e3f e87b 7e3f e87b 7e3f e87b 7e3f
000002c0: e87b 7e3f e87b 7e3f e87b 7e3f e87b 7e3f
000002d0: e87b 7e3f e87b 7e3f e87b 7e3f e87b 7e3f
000002e0: e87b 7e3f e87b 7e3f e87b 7e3f e87b 7e3f
000002f0: e87b 7e3f e87b 7e3f e87b 7e3f e87b 7e3f
00000300: e87b 7e3f e87b 7e3f e87b 7e3f e87b 7e3f
00000310: e87b 7e3f e87b 7e3f e87b 7e3f e87b 7e3f
00000320: e87b 7e3f e87b 7e3f e87b 7e3f e87b 7e3f
00000330: e87b 7e3f e87b 7e3f e87b 7e3f e87b 7e3f
00000340: e87b 7e3f e87b 7e3f e87b 7e3f e87b 7e3f
00000350: e87b 7e3f e87b 7e3f e87b 7e3f e87b 7e3f
00000360: e87b 7e3f e87b 7e3f e87b 7e3f e87b 7e3f
00000370: e87b 7e3f e87b 7e3f e87b 7e3f e87b 7e3f
00000380: e87b 7e3f e87b 7e3f e87b 7e3f e87b 7e3f
00000390: e87b 7e3f e87b 7e3f e87b 7e3f e87b 7e3f
000003a0: e87b 7e3f e87b 7e3f e87b 7e3f e87b 7e3f
000003b0: e87b 7e3f e87b 7e3f e87b 7e3f e87b 7e3f
000003c0: e87b 7e3f e87b 7e3f e87b 7e3f e87b 7e3f
000003d0: e87b 7e3f e87b 7e3f e87b 7e3f e87b 7e3f
000003e0: e87b 7e3f e87b 7e3f e87b 7e3f e87b 7e3f
000003f0: e87b 7e3f e87b 7e3f e87b 7e3f e87b 7e3f

b1/beta f4 [256]
0.0 0.0 0.0 0.0 0.0 0.0 0.0 0.0
0.0 0.0 0.0 0.0 0.0 0.0 0.0 0.0
0.0 0.0 0.0 0.0 0.0 0.0 0.0 0.0
0.0 0.0 0.0 0.0 0.0 0.0 0.0 0.0
0.0 0.0 0.0 0.0 0.0 0.0 0.0 0.0
0.0 0.0 0.0 0.0 0.0 0.0 0.0 0.0
0.0 0.0 0.0 0.0 0.0 0.0 0.0 0.0
0.0 0.0 0.0 0.0 0.0 0.0 0.0 0.0
0.0 0.0 0.0 0.0 0.0 0.0 0.0 0.0
0.0 0.0 0.0 0.0 0.0 0.0 0.0 0.0
0.0 0.0 0.0 0.0 0.0 0.0 0.0 0.0
0.0 0.0 0.0 0.0 0.0 0.0 0.0 0.0
0.0 0.0 0.0 0.0 0.0 0.0 0.0 0.0
0.0 0.0 0.0 0.0 0.0 0.0 0.0 0.0
0.0 0.0 0.0 0.0 0.0 0.0 0.0 0.0
0.0 0.0 0.0 0.0 0.0 0.0 0.0 0.0
0.0 0.0 0.0 0.0 0.0 0.0 0.0 0.0
0.0 0.0 0.0 0.0 0.0 0.0 0.0 0.0
0.0 0.0 0.0 0.0 0.0 0.0 0.0 0.0
0.0 0.0 0.0 0.0 0.0 0.0 0.0 0.0
0.0 0.0 0.0 0.0 0.0 0.0 0.0 0.0
0.0 0.0 0.0 0.0 0.0 0.0 0.0 0.0
0.0 0.0 0.0 0.0 0.0 0.0 0.0 0.0
0.0 0.0 0.0 0.0 0.0 0.0 0.0 0.0
0.0 0.0 0.0 0.0 0.0 0.0 0.0 0.0
0.0 0.0 0.0 0.0 0.0 0.0 0.0 0.0
0.0 0.0 0.0 0.0 0.0 0.0 0.0 0.0
0.0 0.0 0.0 0.0 0.0 0.0 0.0 0.0
0.0 0.0 0.0 0.0 0.0 0.0 0.0 0.0
0.0 0.0 0.0 0.0 0.0 0.0 0.0 0.0
0.0 0.0 0.0 0.0 0.0 0.0 0.0 0.0
0.0 0.0 0.0 0.0 0.0 0.0 0.0 0.0
00000000: 0000 0000 0000 0000 0000 0000 0000 0000
00000010: 0000 0000 0000 0000 0000 0000 0000 0000
00000020: 0000 0000 0000 0000 0000 0000 0000 0000
00000030: 0000 0000 0000 0000 0000 0000 0000 0000
00000040: 0000 0000 0000 0000 0000 0000 0000 0000
00000050: 0000 0000 0000 0000 0000 0000 0000 0000
00000060: 0000 0000 0000 0000 0000 0000 0000 0000
00000070: 0000 0000 0000 0000 0000 0000 0000 0000
00000080: 0000 0000 0000 0000 0000 0000 0000 0000
00000090: 0000 0000 0000 0000 0000 0000 0000 0000
000000a0: 0000 0000 0000 0000 0000 0000 0000 0000
000000b0: 0000 0000 0000 0000 0000 0000 0000 0000
000000c0: 0000 0000 0000 0000 0000 0000 0000 0000
000000d0: 0000 0000 0000 0000 0000 0000 0000 0000
000000e0: 0000 0000 0000 0000 0000 0000 0000 0000
000000f0: 0000 0000 0000 0000 0000 0000 0000 0000
00000100: 0000 0000 0000 0000 0000 0000 0000 0000
00000110: 0000 0000 0000 0000 0000 0000 0000 0000
00000120: 0000 0000 0000 0000 0000 0000 0000 0000
00000130: 0000 0000 0000 0000 0000 0000 0000 0000
00000140: 0000 0000 0000 0000 0000 0000 0000 0000
00000150: 0000 0000 0000 0000 0000 0000 0000 0000
00000160: 0000 0000 0000 0000 0000 0000 0000 0000
00000170: 0000 0000 0000 0000 0000 0000 0000 0000
00000180: 0000 0000 0000 0000 0000 0000 0000 0000
00000190: 0000 0000 0000 0000 0000 0000 0000 0000
000001a0: 0000 0000 0000 0000 0000 0000 0000 0000
000001b0: 0000 0000 0000 0000 0000 0000 0000 0000
000001c0: 0000 0000 0000 0000 0000 0000 0000 0000
000001d0: 0000 0000 0000 0000 0000 0000 0000 0000
000001e0: 0000 0000 0000 0000 0000 0000 0000 0000
000001f0: 0000 0000 0000 0000 0000 0000 0000 0000
00000200: 0000 0000 0000 0000 0000 0000 0000 0000
00000210: 0000 0000 0000 0000 0000 0000 0000 0000
00000220: 0000 0000 0000 0000 0000 0000 0000 0000
00000230: 0000 0000 0000 0000 0000 0000 0000 0000
00000240: 0000 0000 0000 0000 0000 0000 0000 0000
00000250: 0000 0000 0000 0000 0000 0000 0000 0000
00000260: 0000 0000 0000 0000 0000 0000 0000 0000
00000270: 0000 0000 0000 0000 0000 0000 0000 0000
00000280: 0000 0000 0000 0000 0000 0000 0000 0000
00000290: 0000 0000 0000 0000 0000 0000 0000 0000
000002a0: 0000 0000 0000 0000 0000 0000 0000 0000
000002b0: 0000 0000 0000 0000 0000 0000 0000 0000
000002c0: 0000 0000 0000 0000 0000 0000 0000 0000
000002d0: 0000 0000 0000 0000 0000 0000 0000 0000
000002e0: 0000 0000 0000 0000 0000 0000 0000 0000
000002f0: 0000 0000 0000 0000 0000 0000 0000 0000
00000300: 0000 0000 0000 0000 0000 0000 0000 0000
00000310: 0000 0000 0000 0000 0000 0000 0000 0000
00000320: 0000 0000 0000 0000 0000 0000 0000 0000
00000330: 0000 0000 0000 0000 0000 0000 0000 0000
00000340: 0000 0000 0000 0000 0000 0000 0000 0000
00000350: 0000 0000 0000 0000 0000 0000 0000 0000
00000360: 0000 0000 0000 0000 0000 0000 0000 0000
00000370: 0000 0000 0000 0000 0000 0000 0000 0000
00000380: 0000 0000 0000 0000 0000 0000 0000 0000
00000390: 0000 0000 0000 0000 0000 0000 0000 0000
000003a0: 0000 0000 0000 0000 0000 0000 0000 0000
000003b0: 0000 0000 0000 0000 0000 0000 0000 0000
000003c0: 0000 0000 0000 0000 0000 0000 0000 0000
000003d0: 0000 0000 0000 0000 0000 0000 0000 0000
000003e0: 0000 0000 0000 0000 0000 0000 0000 0000
000003f0: 0000 0000 0000 0000 0000 0000 0000 0000

b1/avg_mean f4 [256]
0.0 0.0 0.0 0.0 0.0 0.0 0.0 0.0
0.0 0.0 0.0 0.0 0.0 0.0 0.0 0.0
0.0 0.0 0.0 0.0 0.0 0.0 0.0 0.0
0.0 0.0 0.0 0.0 0.0 0.0 0.0 0.0
0.0 0.0 0.0 0.0 0.0 0.0 0.0 0.0
0.0 0.0 0.0 0.0 0.0 0.0 0.0 0.0
0.0 0.0 0.0 0.0 0.0 0.0 0.0 0.0
0.0 0.0 0.0 0.0 0.0 0.0 0.0 0.0
0.0 0.0 0.0 0.0 0.0 0.0 0.0 0.0
0.0 0.0 0.0 0.0 0.0 0.0 0.0 0.0
0.0 0.0 0.0 0.0 0.0 0.0 0.0 0.0
0.0 0.0 0.0 0.0 0.0 0.0 0.0 0.0
0.0 0.0 0.0 0.0 0.0 0.0 0.0 0.0
0.0 0.0 0.0 0.0 0.0 0.0 0.0 0.0
0.0 0.0 0.0 0.0 0.0 0.0 0.0 0.0
0.0 0.0 0.0 0.0 0.0 0.0 0.0 0.0
0.0 0.0 0.0 0.0 0.0 0.0 0.0 0.0
0.0 0.0 0.0 0.0 0.0 0.0 0.0 0.0
0.0 0.0 0.0 0.0 0.0 0.0 0.0 0.0
0.0 0.0 0.0 0.0 0.0 0.0 0.0 0.0
0.0 0.0 0.0 0.0 0.0 0.0 0.0 0.0
0.0 0.0 0.0 0.0 0.0 0.0 0.0 0.0
0.0 0.0 0.0 0.0 0.0 0.0 0.0 0.0
0.0 0.0 0.0 0.0 0.0 0.0 0.0 0.0
0.0 0.0 0.0 0.0 0.0 0.0 0.0 0.0
0.0 0.0 0.0 0.0 0.0 0.0 0.0 0.0
0.0 0.0 0.0 0.0 0.0 0.0 0.0 0.0
0.0 0.0 0.0 0.0 0.0 0.0 0.0 0.0
0.0 0.0 0.0 0.0 0.0 0.0 0.0 0.0
0.0 0.0 0.0 0.0 0.0 0.0 0.0 0.0
0.0 0.0 0.0 0.0 0.0 0.0 0.0 0.0
0.0 0.0 0.0 0.0 0.0 0.0 0.0 0.0
00000000: 0000 0000 0000 0000 0000 0000 0000 0000
00000010: 0000 0000 0000 0000 0000 0000 0000 0000
00000020: 0000 0000 0000 0000 0000 0000 0000 0000
00000030: 0000 0000 0000 0000 0000 0000 0000 0000
00000040: 0000 0000 0000 0000 0000 0000 0000 0000
00000050: 0000 0000 0000 0000 0000 0000 0000 0000
00000060: 0000 0000 0000 0000 0000 0000 0000 0000
00000070: 0000 0000 0000 0000 0000 0000 0000 0000
00000080: 0000 0000 0000 0000 0000 0000 0000 0000
00000090: 0000 0000 0000 0000 0000 0000 0000 0000
000000a0: 0000 0000 0000 0000 0000 0000 0000 0000
000000b0: 0000 0000 0000 0000 0000 0000 0000 0000
000000c0: 0000 0000 0000 0000 0000 0000 0000 0000
000000d0: 0000 0000 0000 0000 0000 0000 0000 0000
000000e0: 0000 0000 0000 0000 0000 0000 0000 0000
000000f0: 0000 0000 0000 0000 0000 0000 0000 0000
00000100: 0000 0000 0000 0000 0000 0000 0000 0000
00000110: 0000 0000 0000 0000 0000 0000 0000 0000
00000120: 0000 0000 0000 0000 0000 0000 0000 0000
00000130: 0000 0000 0000 0000 0000 0000 0000 0000
00000140: 0000 0000 0000 0000 0000 0000 0000 0000
00000150: 0000 0000 0000 0000 0000 0000 0000 0000
00000160: 0000 0000 0000 0000 0000 0000 0000 0000
00000170: 0000 0000 0000 0000 0000 0000 0000 0000
00000180: 0000 0000 0000 0000 0000 0000 0000 0000
00000190: 0000 0000 0000 0000 0000 0000 0000 0000
000001a0: 0000 0000 0000 0000 0000 0000 0000 0000
000001b0: 0000 0000 0000 0000 0000 0000 0000 0000
000001c0: 0000 0000 0000 0000 0000 0000 0000 0000
000001d0: 0000 0000 0000 0000 0000 0000 0000 0000
000001e0: 0000 0000 0000 0000 0000 0000 0000 0000
000001f0: 0000 0000 0000 0000 0000 0000 0000 0000
00000200: 0000 0000 0000 0000 0000 0000 0000 0000
00000210: 0000 0000 0000 0000 0000 0000 0000 0000
00000220: 0000 0000 0000 0000 0000 0000 0000 0000
00000230: 0000 0000 0000 0000 0000 0000 0000 0000
00000240: 0000 0000 0000 0000 0000 0000 0000 0000
00000250: 0000 0000 0000 0000 0000 0000 0000 0000
00000260: 0000 0000 0000 0000 0000 0000 0000 0000
00000270: 0000 0000 0000 0000 0000 0000 0000 0000
00000280: 0000 0000 0000 0000 0000 0000 0000 0000
00000290: 0000 0000 0000 0000 0000 0000 0000 0000
000002a0: 0000 0000 0000 0000 0000 0000 0000 0000
000002b0: 0000 0000 0000 0000 0000 0000 0000 0000
000002c0: 0000 0000 0000 0000 0000 0000 0000 0000
000002d0: 0000 0000 0000 0000 0000 0000 0000 0000
000002e0: 0000 0000 0000 0000 0000 0000 0000 0000
000002f0: 0000 0000 0000 0000 0000 0000 0000 0000
00000300: 0000 0000 0000 0000 0000 0000 0000 0000
00000310: 0000 0000 0000 0000 0000 0000 0000 0000
00000320: 0000 0000 0000 0000 0000 0000 0000 0000
00000330: 0000 0000 0000 0000 0000 0000 0000 0000
00000340: 0000 0000 0000 0000 0000 0000 0000 0000
00000350: 0000 0000 0000 0000 0000 0000 0000 0000
00000360: 0000 0000 0000 0000 0000 0000 0000 0000
00000370: 0000 0000 0000 0000 0000 0000 0000 0000
00000380: 0000 0000 0000 0000 0000 0000 0000 0000
00000390: 0000 0000 0000 0000 0000 0000 0000 0000
000003a0: 0000 0000 0000 0000 0000 0000 0000 0000
000003b0: 0000 0000 0000 0000 0000 0000 0000 0000
000003c0: 0000 0000 0000 0000 0000 0000 0000 0000
000003d0: 0000 0000 0000 0000 0000 0000 0000 0000
000003e0: 0000 0000 0000 0000 0000 0000 0000 0000
000003f0: 0000 0000 0000 0000 0000 0000 0000 0000

b1/avg_var f4 [256]
1.0 1.0 1.0 1.0 1.0 1.0 1.0 1.0
1.0 1.0 1.0 1.0 1.0 1.0 1.0 1.0
1.0 1.0 1.0 1.0 1.0 1.0 1.0 1.0
1.0 1.0 1.0 1.0 1.0 1.0 1.0 1.0
1.0 1.0 1.0 1.0 1.0 1.0 1.0 1.0
1.0 1.0 1.0 1.0 1.0 1.0 1.0 1.0
1.0 1.0 1.0 1.0 1.0 1.0 1.0 1.0
1.0 1.0 1.0 1.0 1.0 1.0 1.0 1.0
1.0 1.0 1.0 1.0 1.0 1.0 1.0 1.0
1.0 1.0 1.0 1.0 1.0 1.0 1.0 1.0
1.0 1.0 1.0 1.0 1.0 1.0 1.0 1.0
1.0 1.0 1.0 1.0 1.0 1.0 1.0 1.0
1.0 1.0 1.0 1.0 1.0 1.0 1.0 1.0
1.0 1.0 1.0 1.0 1.0 1.0 1.0 1.0
1.0 1.0 1.0 1.0 1.0 1.0 1.0 1.0
1.0 1.0 1.0 1.0 1.0 1.0 1.0 1.0
1.0 1.0 1.0 1.0 1.0 1.0 1.0 1.0
1.0 1.0 1.0 1.0 1.0 1.0 1.0 1.0
1.0 1.0 1.0 1.0 1.0 1.0 1.0 1.0
1.0 1.0 1.0 1.0 1.0 1.0 1.0 1.0
1.0 1.0 1.0 1.0 1.0 1.0 1.0 1.0
1.0 1.0 1.0 1.0 1.0 1.0 1.0 1.0
1.0 1.0 1.0 1.0 1.0 1.0 1.0 1.0
1.0 1.0 1.0 1.0 1.0 1.0 1.0 1.0
1.0 1.0 1.0 1.0 1.0 1.0 1.0 1.0
1.0 1.0 1.0 1.0 1.0 1.0 1.0 1.0
1.0 1.0 1.0 1.0 1.0 1.0 1.0 1.0
1.0 1.0 1.0 1.0 1.0 1.0 1.0 1.0
1.0 1.0 1.0 1.0 1.0 1.0 1.0 1.0
1.0 1.0 1.0 1.0 1.0 1.0 1.0 1.0
1.0 1.0 1.0 1.0 1.0 1.0 1.0 1.0
1.0 1.0 1.0 1.0 1.0 1.0 1.0 1.0
00000000: 0000 803f 0000 803f 0000 803f 0000 803f
00000010: 0000 803f 0000 803f 0000 803f 0000 803f
00000020: 0000 803f 0000 803f 0000 803f 0000 803f
00000030: 0000 803f 0000 803f 0000 803f 0000 803f
00000040: 0000 803f 0000 803f 0000 803f 0000 803f
00000050: 0000 803f 0000 803f 0000 803f 0000 803f
00000060: 0000 803f 0000 803f 0000 803f 0000 803f
00000070: 0000 803f 0000 803f 0000 803f 0000 803f
00000080: 0000 803f 0000 803f 0000 803f 0000 803f
00000090: 0000 803f 0000 803f 0000 803f 0000 803f
000000a0: 0000 803f 0000 803f 0000 803f 0000 803f
000000b0: 0000 803f 0000 803f 0000 803f 0000 803f
000000c0: 0000 803f 0000 803f 0000 803f 0000 803f
000000d0: 0000 803f 0000 803f 0000 803f 0000 803f
000000e0: 0000 803f 0000 803f 0000 803f 0000 803f
000000f0: 0000 803f 0000 803f 0000 803f 0000 803f
00000100: 0000 803f 0000 803f 0000 803f 0000 803f
00000110: 0000 803f 0000 803f 0000 803f 0000 803f
00000120: 0000 803f 0000 803f 0000 803f 0000 803f
00000130: 0000 803f 0000 803f 0000 803f 0000 803f
00000140: 0000 803f 0000 803f 0000 803f 0000 803f
00000150: 0000 803f 0000 803f 0000 803f 0000 803f
00000160: 0000 803f 0000 803f 0000 803f 0000 803f
00000170: 0000 803f 0000 803f 0000 803f 0000 803f
00000180: 0000 803f 0000 803f 0000 803f 0000 803f
00000190: 0000 803f 0000 803f 0000 803f 0000 803f
000001a0: 0000 803f 0000 803f 0000 803f 0000 803f
000001b0: 0000 803f 0000 803f 0000 803f 0000 803f
000001c0: 0000 803f 0000 803f 0000 803f 0000 803f
000001d0: 0000 803f 0000 803f 0000 803f 0000 803f
000001e0: 0000 803f 0000 803f 0000 803f 0000 803f
000001f0: 0000 803f 0000 803f 0000 803f 0000 803f
00000200: 0000 803f 0000 803f 0000 803f 0000 803f
00000210: 0000 803f 0000 803f 0000 803f 0000 803f
00000220: 0000 803f 0000 803f 0000 803f 0000 803f
00000230: 0000 803f 0000 803f 0000 803f 0000 803f
00000240: 0000 803f 0000 803f 0000 803f 0000 803f
00000250: 0000 803f 0000 803f 0000 803f 0000 803f
00000260: 0000 803f 0000 803f 0000 803f 0000 803f
00000270: 0000 803f 0000 803f 0000 803f 0000 803f
00000280: 0000 803f 0000 803f 0000 803f 0000 803f
00000290: 0000 803f 0000 803f 0000 803f 0000 803f
000002a0: 0000 803f 0000 803f 0000 803f 0000 803f
000002b0: 0000 803f 0000 803f 0000 803f 0000 803f
000002c0: 0000 803f 0000 803f 0000 803f 0000 803f
000002d0: 0000 803f 0000 803f 0000 803f 0000 803f
000002e0: 0000 803f 0000 803f 0000 803f 0000 803f
000002f0: 0000 803f 0000 803f 0000 803f 0000 803f
00000300: 0000 803f 0000 803f 0000 803f 0000 803f
00000310: 0000 803f 0000 803f 0000 803f 0000 803f
00000320: 0000 803f 0000 803f 0000 803f 0000 803f
00000330: 0000 803f 0000 803f 0000 803f 0000 803f
00000340: 0000 803f 0000 803f 0000 803f 0000 803f
00000350: 0000 803f 0000 803f 0000 803f 0000 803f
00000360: 0000 803f 0000 803f 0000 803f 0000 803f
00000370: 0000 803f 0000 803f 0000 803f 0000 803f
00000380: 0000 803f 0000 803f 0000 803f 0000 803f
00000390: 0000 803f 0000 803f 0000 803f 0000 803f
000003a0: 0000 803f 0000 803f 0000 803f 0000 803f
000003b0: 0000 803f 0000 803f 0000 803f 0000 803f
000003c0: 0000 803f 0000 803f 0000 803f 0000 803f
000003d0: 0000 803f 0000 803f 0000 803f 0000 803f
000003e0: 0000 803f 0000 803f 0000 803f 0000 803f
000003f0: 0000 803f 0000 803f 0000 803f 0000 803f

l1/0/w2 f4 [128, 3]
0.84464717 0.22211759 0.5501171 0.58044875 0.5319416 -0.2551209 -0.15399309 1.6349391
0.12793273 -1.029502 -0.32119364 0.93242717 -0.25716546 -0.6797902 -0.7942044 0.46254304
-1.1307666 0.31146497 -0.7977168 -0.28320017 -0.8563689 -0.5294219 0.460648 0.5243781
-0.22161695 -0.496886 -0.43525666 -0.5474012 -0.5756099 -0.6276817 -0.03955757 -0.7253255
0.48952007 1.1620363 0.25073576 0.53979427 0.8469211 0.5977365 -0.83536094 0.2091037
-0.3390385 -0.33475026 0.12041165 0.70018023 -1.5523193 -0.028906556 0.32074758 -0.21030837
-1.0166986 0.35214624 0.33572912 0.7676386 -0.30329475 0.21040659 0.93252206 0.4885055
-0.7622274 0.40570176 -0.49662334 -0.64639735 0.69779694 0.10691492 -0.3717673 -1.172561
0.76761645 -0.08720056 0.38902804 -0.22494657 -0.41309243 0.22732373 -0.114238754 -1.1929013
0.4265305 1.4988471 0.168668 0.2439466 0.3008626 0.7815518 0.2821483 -0.24048106
-0.32353795 0.23273595 -1.3757821 0.039744046 -0.15676899 0.004003311 0.11747278 0.46342638
0.8251697 0.39281413 0.26582754 -1.5159427 0.3580832 0.28919572 0.3362867 0.8911445
0.3553635 0.32252705 -0.09770307 0.26814535 1.322321 -0.015024439 -0.09594614 -0.049516957
0.6568442 0.56460154 -0.24509513 0.14386477 1.2934682 -1.249603 0.56969297 0.98191744
0.5991932 0.91142046 0.9356118 -0.45227063 -0.096142836 0.26466382 1.0885279 -0.6895124
-0.023177704 0.23515832 -0.15379548 0.08741727 0.06435382 0.18926412 -0.23502415 -0.782713
-0.64367163 0.1088855 -0.027337337 -0.09959952 -0.6122898 0.022482134 -0.06334264 -0.010296519
-0.00644018 -1.0514909 0.36826828 0.15656817 0.11630225 -0.57802737 -0.88518864 0.10224751
-0.15726194 0.3711328 -0.018344352 -1.1834233 -1.0107856 0.46310905 -0.6870889 1.1851169
0.45605144 0.5124963 -0.5893754 0.38304076 0.5487587 -0.63322526 -0.915298 0.5545925
-0.06784561 -0.10119991 0.26805198 -0.75506604 0.6557647 -0.2597583 -0.17658338 -0.6107421
-1.2719042 -0.65065455 -0.47947335 0.41972294 0.24224567 0.16328506 -0.64646804 -0.84751934
-0.14711428 0.03945375 -0.48411068 -0.09482177 -1.0059805 -0.45216343 0.61837417 -0.38457307
-0.31761175 -0.53710467 0.11486034 -0.6456146 0.26675737 0.012873867 -0.8576213 0.17579697
-0.90926605 -0.85740584 0.020157808 0.2046599 -0.16393219 -0.3736393 -0.3593452 0.43034658
-0.7208207 0.086587384 -0.12889911 -1.0070499 0.7625654 -0.13378316 -0.7249978 0.5973854
-0.8232928 -0.67201257 0.31528726 0.1755623 -1.8241453 0.3495326 -0.40660596 1.2047166
0.6342907 -0.9476571 1.1457181 0.11245679 0.054375306 0.0849393 0.06837727 0.31199658
0.44136956 -0.2655169 0.018877378 -0.40311858 0.79849523 0.18455826 0.7823264 0.022530613
-0.38185486 -0.24010223 0.6284292 0.6540433 -0.39505497 0.116993845 -0.6644876 -1.0749599
-0.7470201 -0.4407786 0.08510603 -0.3991149 -0.49756137 -0.4035407 0.17115857 0.28609577
0.1986197 0.2440816 -0.47178918 0.068828024 -0.32915843 0.30477628 0.38964513 0.36519256
00000000: cc3a 583f cb72 633e 79d4 0c3f 4a98 143f
00000010: 532d 083f 359f 82be 5db0 1dbe af45 d13f
00000020: cc00 033e b9c6 83bf 7e73 a4be 8cb3 6e3f
00000030: 31ab 83be bb06 2ebf fb50 4bbf 71d2 ec3e
00000040: f6bc 90bf 5678 9f3e 2b37 4cbf 9dff 90be
00000050: fe3a 5bbf 3288 07bf 0eda eb3e a53d 063f
00000060: 8eef 62be d767 febe f6d9 debe 7c22 0cbf
00000070: 2c5b 13bf bfaf 20bf 1e07 22bd efae 39bf
00000080: 60a2 fa3e 9bbd 943f 7060 803e f52f 0a3f
00000090: d2cf 583f 4205 193f 37da 55bf 481f 563e
000000a0: 7496 adbe 6364 abbe 629a f63d 033f 333f
000000b0: 66b2 c6bf 71cd ecbc 0739 a43e 145b 57be
000000c0: 2e23 82bf 834c b43e b0e4 ab3e f783 443f
000000d0: 7349 9bbe d374 573e c4b9 6e3f 651d fa3e
000000e0: 5621 43bf 24b8 cf3e 6a45 febe 4c7a 25bf
000000f0: d2a2 323f 36f6 da3d 4958 bebe 7b16 96bf
00000100: 8382 443f 3596 b2bd af2e c73e 6558 66be
00000110: da80 d3be 8dc7 683e 02f6 e9bd fdb0 98bf
00000120: 3562 da3e 39da bf3f 4eb7 2c3e 23cd 793e
00000130: aa0a 9a3e c713 483f be75 903e ab40 76be
00000140: c4a6 a5be 5552 6e3e a119 b0bf a7ca 223d
00000150: 0d88 20be 352e 833b 9295 f03d 3946 ed3e
00000160: 523e 533f ef1e c93e 8c1a 883e 690a c2bf
00000170: ae56 b73e 7611 943e c52d ac3e 0c22 643f
00000180: 34f2 b53e 4422 a53e 8c18 c8bd 594a 893e
00000190: d141 a93f 1129 76bc 697f c4bd 4bd2 4abd
000001a0: f126 283f ba89 103f 38fa 7abe 4951 133e
000001b0: 5e90 a53f fef2 9fbf 66d7 113f f15e 7b3f
000001c0: ba64 193f da52 693f 4184 6f3f 0490 e7be
000001d0: 89e6 c4bd 0482 873e e254 8b3f e283 30bf
000001e0: 2bdf bdbc 58cd 703e 907c 1dbe d307 b33d
000001f0: f0cb 833d 74ce 413e 2caa 70be e15f 48bf
00000200: aac7 24bf 5cff de3d 8df2 dfbc d5fa cbbd
00000210: 06bf 1cbf 742c b83c c9b9 81bd bbb2 28bc
00000220: 2508 d3bb 4197 86bf a98d bc3e 6853 203e
00000230: e02f ee3d 9af9 13bf b99b 62bf 2467 d13d
00000240: 4609 21be 1e05 be3e e546 96bc 6a7a 97bf
00000250: 6c61 81bf a11c ed3e 0fe5 2fbf e9b1 973f
00000260: 937f e93e f532 033f 4ee1 16bf eb1d c43e
00000270: 737b 0c3f 0d1b 22bf f850 6abf c6f9 0d3f
00000280: a4f2 8abd e641 cfbd 1c3e 893e 024c 41bf
00000290: 32e0 273f 0aff 84be 46d2 34be 9859 1cbf
000002a0: c2cd a2bf 4c91 26bf 887d f5be ede5 d63e
000002b0: 400f 783e 3334 273e ee7e 25bf 07f7 58bf
000002c0: 20a5 16be 419a 213d 5bdd f7be eb31 c2bd
000002d0: f8c3 80bf f781 e7be c54d 1e3f c3e6 c4be
000002e0: 029e a2be b17f 09bf e63b eb3d 0047 25bf
000002f0: 6c94 883e e9ec 523c 128d 5bbf 1f04 343e
00000300: a9c5 68bf f37e 5bbf fd21 a53c 5d92 513e
00000310: d7dd 27be a64d bfbe 18fc b7be 6356 dc3e
00000320: b587 38bf ba54 b13d 21fe 03be 03e7 80bf
00000330: 7c37 433f 74fe 08be 7599 39bf 40ee 183f
00000340: 51c3 52bf 0409 2cbf 556d a13e 9bc6 333e
00000350: 987d e9bf f0f5 b23e a82e d0be 2734 9a3f
00000360: e060 223f a899 72bf e4a6 923f bf4f e63d
00000370: a4b8 5e3d a8f4 ad3d 6209 8c3d 04be 9f3e
00000380: 31fb e13e d5f1 87be bba4 9a3c 8f65 cebe
00000390: 2f6a 4c3f d7fc 3c3e 8b46 483f 1f92 b83c
000003a0: 7b82 c3be 5cdd 75be bce0 203f 626f 273f
000003b0: a544 cabe 789a ef3d dc1b 2abf 4998 89bf
000003c0: b63c 3fbf bcad e1be 124c ae3d ca58 ccbe
000003d0: 5dc0 febe e39c cebe 3144 2f3e 257b 923e
000003e0: f662 4b3e 87f0 793e 5a8e f1be b5f5 8c3d
000003f0: 7487 a8be a30b 9c3e 917f c73e 85fa ba3e

l1/0/b3 f4 [128]
-0.00075321074 -0.0028191728 -0.0023505483 -0.000915509 0.0035505223 0.009764879 -0.001766403 0.009025489
-0.00043169328 0.0036802501 0.0019736004 -0.00070138363 -0.0009574867 0.0076812976 0.0018845013 0.0036958524
0.009159843 -0.0013806381 0.00030517613 0.0015034013 0.008349767 0.0030119054 -0.00501272 0.00070512673
-0.0013197814 0.0036295478 0.0065713446 0.0043419143 -0.0013198694 0.005580311 0.0047321864 -0.004777618
0.0014611542 -0.0032739013 -0.0076380167 0.0039877216 -0.0027062257 0.0028593587 0.008069971 -0.0063025914
-0.0036410438 0.013875097 0.0027954455 0.00267741 0.009339144 0.008829538 0.002372935 0.008670468
0.00079405244 0.0077687334 0.008622377 0.005926083 0.00067500386 0.00031734834 -0.002927202 0.007346418
0.003692271 0.0017940677 0.023927767 0.0010437662 -0.00051013404 -0.00097212166 0.009973951 0.012487784
0.0033141933 -0.0081557445 -0.0031750184 0.007971277 0.006533473 0.0024916711 -0.004735994 0.00036753155
-0.011134625 0.006331648 0.021473672 -0.00034305776 -0.0028242597 -0.00034475423 -0.011671486 -0.0065206923
0.0014348079 0.0005929545 0.0046491968 0.0035212645 0.0022388909 0.009134707 -0.00014652692 0.00094368344
0.00020761346 0.00025940768 0.006449184 0.0013010575 0.0014447276 0.0021728782 0.0012801184 0.012559196
0.0020421948 0.0073278514 -0.001834009 -0.0010251047 0.007298187 0.004351913 0.0018251463 0.010352025
-0.0009895087 0.004866699 0.0027451005 -0.0021823174 0.008553154 -0.0011230459 -0.001623176 0.009454468
0.002312598 0.0030893097 0.0071373605 -0.007837237 0.0055651683 -0.0016971725 -0.0022036433 -0.0014412841
0.010110127 0.0099441055 0.0049349573 0.0070944573 0.010097605 0.008341843 0.00018238858 -0.0018822459
00000000: 1e73 45ba dfc1 38bb a80b 1abb c5fe 6fba
00000010: e1af 683b dffc 1f3c a686 e7ba a5df 133c
00000020: e454 e2b9 5a30 713b 8557 013b 0fdd 37ba
00000030: d8ff 7aba 65b3 fb3b 5f01 f73a 1d36 723b
00000040: 2b13 163c 87f6 b4ba 0c00 a039 c70d c53a
00000050: 76cd 083c 6363 453b be41 a4bb 41d8 383a
00000060: 84fc acba b5dd 6d3b 6f54 d73b 9e46 8e3b
00000070: 78ff acba 0bdb b63b 7510 9b3b 918d 9cbb
00000080: 3384 bf3a f38e 56bb 5448 fabb 6fab 823b
00000090: ef5a 31bb 1464 3b3b e937 043c f885 cebb
000000a0: 949e 6ebb 6054 633c cb33 373b 7c77 2f3b
000000b0: 3603 193c c4a9 103c 3e83 1b3b 940e 0e3c
000000c0: f527 503a dc90 fe3b df44 0d3c 962f c23b
000000d0: bef2 303a c661 a639 4dd6 3fbb 39ba f03b
000000e0: 07fa 713b ec26 eb3a 2a04 c43c fbce 883a
000000f0: 84ba 05ba fbd5 7eba c869 233c 9099 4c3c
00000100: f032 593b ac9f 05bc f813 50bb f699 023c
00000110: be16 d63b 4e4b 233b 6630 9bbb 40b1 c039
00000120: 016e 36bc b779 cf3b 8ee9 af3c 6fdc b3b9
00000130: 3717 39bb 21c0 b4b9 c339 3fbc 88ab d5bb
00000140: 2a10 bc3a 8170 1b3a 4a58 983b 04c5 663b
00000150: 5bba 123b bda9 153c 05a5 19b9 8661 773a
00000160: d0b2 5939 1c01 8839 ad53 d33b 3f88 aa3a
00000170: 045d bd3a d966 0e3b a5c9 a73a 16c5 4d3c
00000180: 58d6 053b 791e f03b 2163 f0ba ce5c 86ba
00000190: a125 ef3b 7e9a 8e3b bf39 ef3a 8a9b 293c
000001a0: 67b2 81ba d578 9f3b 25e7 333b 3605 0fbb
000001b0: 8722 0c3c 2b33 93ba c0c0 d4ba eae6 1a3c
000001c0: f58e 173b 0476 4a3b 85e0 e93b c167 00bc
000001d0: 045c b63b a973 deba 006b 10bb 78e9 bcba
000001e0: f2a4 253c 9aec 223c 6cb5 a13b 9f78 e83b
000001f0: 6d70 253c 3aac 083c 903f 3f39 b1b5 f6ba

l1/0/b5 f4 [128]
0.0035110363 -0.00058835925 0.002413369 -0.0012272137 0.001201918 0.010898365 0.0014123537 0.008695772
0.00018348891 0.0005976327 0.0029276847 -0.00040381725 -0.0016407452 0.003593802 0.0033816064 0.0007062181
-0.0033495154 0.0008675795 -7.224691e-05 -0.0051669944 0.0011793511 -0.0015058478 -0.0055733384 -0.0008319174
0.0012744002 0.00036708737 0.0038306015 -0.002396427 -0.0015492056 0.0047547654 0.0031819881 -0.00021789578
0.004623339 0.0021145942 -0.004843714 0.003815606 0.005153305 -0.0027908646 0.0066183484 0.00024713433
0.00019046897 0.00572007 0.001481271 0.0025793668 -0.011053355 0.006446963 0.006530093 0.0039587845
0.0012014332 -0.02027142 -0.00054050377 0.0068141995 -0.007565603 -4.068295e-05 0.00043465648 0.000747325
0.0013575631 0.004562617 0.017051715 -0.001068786 0.00013202253 0.0040948726 0.010566588 0.009816815
0.00171631 -0.004444514 0.0005707094 0.0016990622 0.0009855326 -0.0062921415 -0.0038653587 -0.0029470655
-0.0095591415 0.0055591892 0.04293979 -0.0037233708 -0.0045244843 0.0014867977 -0.0069658975 -0.0065714675
0.0015978935 0.0045772907 0.0065946016 -0.0015172827 0.0016412658 0.0058680996 -0.00065978843 -0.0011076882
-0.0061204275 -0.0038487017 0.005889444 -0.0015184503 0.0029553631 0.0049049305 -0.0004722973 0.007518918
0.0015738836 0.0046577007 0.0011772333 -0.0023633575 0.0044895587 0.008771149 0.000104810635 0.0041221073
0.0012826587 0.0049235993 0.0032075546 -0.0011886416 0.005638404 -0.0075557292 0.0012894154 0.00026050454
0.0023882147 -0.00076752785 0.006911393 -0.0071644415 0.00048775531 -0.0046603596 -0.0011586801 0.0007193368
0.011936055 0.017764466 0.0020531553 0.010555017 0.015570691 0.0115085235 -0.0009363594 0.0013217761
00000000: 6a19 663b 1f3c 1aba 9d29 1e3b 75da a0ba
00000010: ad89 9d3a 0e8f 323c ba1e b93a b678 0e3c
00000020: ee66 4039 74aa 1c3a 66de 3f3b 6fb7 d3b9
00000030: 460e d7ba fe85 6b3b f19d 5d3b 7f21 393a
00000040: 8b83 5bbb 466e 633a 4483 97b8 e44f a9bb
00000050: 7594 9a3a de5f c5ba 8da0 b6bb 0815 5aba
00000060: c609 a73a a275 c039 d40a 7b3b 600d 1dbb
00000070: b70e cbba ddcd 9b3b e788 503b f47a 64b9
00000080: 617f 973b 0195 0a3b 05b8 9ebb 3f0f 7a3b
00000090: 0edd a83b f0e6 36bb bbde d83b cf91 8139
000000a0: a0b8 4739 6d6f bb3b 3527 c23a 980a 293b
000000b0: 2219 35bc 0c41 d33b 64fa d53b b1b8 813b
000000c0: 6979 9d3a 4010 a6bc 98b0 0dba a649 df3b
000000d0: e1e8 f7bb fca2 2ab8 9be2 e339 22e8 433a
000000e0: 42f0 b13a 0182 953b 0ab0 8b3c 8216 8cba
000000f0: 876f 0a39 482e 863b 7b1f 2d3c b5d6 203c
00000100: cff5 e03a 49a3 91bb a99b 153a 11b3 de3a
00000110: fd2c 813a 4f2e cebb f551 7dbb 8e23 41bb
00000120: f29d 1cbc dc29 b63b a2e1 2f3d cc03 74bb
00000130: 2042 94bb a7e0 c23a 2f42 e4bb 7755 d7bb
00000140: 6970 d13a 19fd 953b 8717 d83b 8fdf c6ba
00000150: be1f d73a 3049 c03b a7f5 2cba d92f 91ba
00000160: de8d c8bb 803a 7cbb 3dfc c03b bd06 c7ba
00000170: c4ae 413b 8ab9 a03b ac9e f7b9 4161 f63b
00000180: c54a ce3a a09f 983b 654d 9a3a 8fe2 1abb
00000190: 261d 933b deb4 0f3c c8cd db38 be12 873b
000001a0: e21e a83a 2556 a13b d635 523b 32cc 9bba
000001b0: 5cc2 b83b 0d96 f7bb 9a01 a93a 5494 8839
000001c0: 9883 1c3b ec33 49ba f778 e23b b1c3 eabb
000001d0: 69b9 ff39 eeb5 98bb dade 97ba e091 3c3a
000001e0: 718f 433c c986 913c 3b8e 063b f3ee 2c3c
000001f0: 361c 7f3c 3f8e 3c3c 0476 75ba 723f ad3a
