ch7/Logic_train/result/out.model (npz, 1503 bytes, 6 tensors)

predictor/l2/W f4 [6, 6]
0	0x3f7cd460	0.9876156
1	0xbf807fa4	-1.0038953
2	0x3f673d9d	0.9032839
3	0x3eee373b	0.46526513
4	0x3e70ff6f	0.2353494
5	0x3f2fa61a	0.68612826
6	0xbe46ba1f	-0.19406937
7	0x3b388036	0.0028152592
8	0xbd7c56e2	-0.061606295
9	0xbdf051ca	-0.1173435
10	0xbf03bbec	-0.5145862
11	0xbee78d99	-0.45225218
12	0x3d1367bd	0.035987604
13	0xbe8c612d	-0.2741789
14	0x3f18f02b	0.5974147
15	0x3f064351	0.52446467
16	0xbea62bd0	-0.324553
17	0xbe4b5702	-0.1985741
18	0xbf2c280e	-0.6724862
19	0x3ed9b08a	0.425175
20	0xbee2ce6d	-0.44298115
21	0x3b745a96	0.0037285439
22	0x3ee48523	0.44632825
23	0x3f4bf3cc	0.7966888
24	0x3f87740a	1.0582287
25	0xbda76c97	-0.08175009
26	0xbef6323c	-0.480852
27	0x3f1522ce	0.5825623
28	0x3fa6e228	1.3037767
29	0x3fa330b0	1.2749233
30	0x3f3754f7	0.7161402
31	0x3fd822b7	1.6885594
32	0xbf0ec244	-0.55765176
33	0x3be8b1b2	0.007101261
34	0xbf6acac3	-0.9171564
35	0x3cc6ed0b	0.024282953

predictor/l2/b f4 [6]
0	0xbe306172	-0.17224672
1	0xbc96348d	-0.018335605
2	0x3e391c63	0.18077235
3	0xbee3cd54	-0.4449259
4	0x3e4362de	0.19080684
5	0xbf3f6d60	-0.7477627

predictor/l1/W f4 [6, 3]
0	0x3f06f2b5	0.5271409
1	0xbfcef63b	-1.6168894
2	0x3f8b815f	1.0898856
3	0x3f9d1c1f	1.2274207
4	0x3f5f1527	0.8714165
5	0x3f2b79fd	0.66983014
6	0xbf3198b2	-0.6937362
7	0xbf8615b7	-1.0475377
8	0x3f00e4bf	0.5034904
9	0xbd207082	-0.039169796
10	0xbf080419	-0.5313125
11	0xbd387eec	-0.045042917
12	0x3f844fa1	1.0336801
13	0xbc77f142	-0.015133204
14	0xbf8267e7	-1.0187958
15	0xbfd7a086	-1.6845863
16	0x3ea66017	0.32495186
17	0x3fadfeeb	1.359342

predictor/l1/b f4 [6]
0	0xb912e1a8	-0.00014007709
1	0xbedd76f7	-0.43254825
2	0x3e42e867	0.19033967
3	0x00000000	0.0
4	0xb81eca4e	-3.7858546e-05
5	0x378952b6	1.6370188e-05

predictor/l3/W f4 [4, 6]
0	0xbf4f6a48	-0.8102155
1	0xbf1f2315	-0.62162906
2	0x3e5fe4b8	0.21864593
3	0xbf13c2c2	-0.5771905
4	0xbec38d48	-0.38193727
5	0xbf564a05	-0.83706695
6	0x3f14fcd6	0.581983
7	0xbe440678	-0.19143093
8	0xbf3d7e77	-0.74021095
9	0xbfe9c074	-1.8261857
10	0x3f9ff65e	1.249706
11	0xbf3f452b	-0.74714917
12	0xbf8bd182	-1.0923312
13	0xbd4821bd	-0.0488603
14	0xbeb5ff6b	-0.3554643
15	0x3f84bbfe	1.0369871
16	0x3f8b8d50	1.09025
17	0x3f4a8405	0.79107696
18	0xbf17dca6	-0.5932106
19	0x3e87c2ca	0.265158
20	0x3d0909e3	0.033456694
21	0x3f880cfb	1.0628961
22	0xbfce1286	-1.6099403
23	0x3fa0337c	1.2515712

predictor/l3/b f4 [4]
0	0x3f0fe06c	0.56201816
1	0x3eff2dd2	0.49839646
2	0xbf605e87	-0.8764424
3	0xbf18452c	-0.5948055
