ch2/Count_test/result/out.model (npz, 1501 bytes, 6 tensors)

predictor/l3/b f4 [4]
0.7869049 0.31407928 -0.75776166 -0.8876945
00000000: 9972 493f 00cf a03e abfc 41bf f23f 63bf

predictor/l3/W f4 [4, 6]
0.16416726 -0.66750056 -1.1687459 -0.34993708 -1.5085683 0.10372373 -0.153709 -1.4609962
0.67085063 1.5348876 0.9197329 -0.39423054 -0.6281352 1.5673863 1.5178165 1.32544
0.25034338 0.09609483 0.3987048 1.0454372 -1.6786216 -1.315346 -1.4692274 0.13916
00000000: 761b 283e 51e1 2abf 7799 95bf f42a b3be
00000010: c418 c1bf 1b6d d43d e465 1dbe ec01 bbbf
00000020: debc 2b3f 3277 c43f 9e73 6b3f 96d8 c9be
00000030: 78cd 20bf 1da0 c83f d047 c23f 05a8 a93f
00000040: 022d 803e 5ecd c43d 0923 cc3e e3d0 853f
00000050: 13dd d6bf 425d a8bf a50f bcbf f67f 0e3e

predictor/l1/b f4 [6]
-0.20350865 0.51800346 0.0 -0.22671415 0.0 0.2983749
00000000: 9264 50be e09b 043f 0000 0000 c127 68be
00000010: 0000 0000 98c4 983e

predictor/l1/W f4 [6, 3]
1.0903451 1.2347112 -0.23762019 0.7697567 0.7699352 -1.2878507 -0.35226664 -0.27089164
-0.23350988 0.4364875 0.32309037 1.6516234 -0.97884357 -0.49304065 -0.25900677 -0.44312716
-0.31723034 0.4943479
00000000: 6e90 8b3f 040b 9e3f b552 73be c60e 453f
00000010: 791a 453f 4bd8 a4bf 4b5c b4be 4fb2 8abe
00000020: 371d 6fbe 4a7b df3e 1a6c a53e 6568 d33f
00000030: 7e95 7abf d36f fcbe 899c 84be 90e1 e2be
00000040: 046c a2be 2b1b fd3e

predictor/l2/b f4 [6]
0.4737352 -0.7108068 -0.20277017 -0.09354854 0.047620308 0.0
00000000: 6c8d f23e 6ff7 35bf fca2 4fbe 6096 bfbd
00000010: 830d 433d 0000 0000

predictor/l2/W f4 [6, 6]
1.5473378 0.92372864 0.03242778 0.44739646 -0.33210394 0.25616112 1.8824179 -0.9085226
-0.20354743 1.116939 0.039521873 -1.1116024 0.6906756 0.48528144 0.19707574 -0.6715387
-0.16877298 -0.16355382 -0.6936872 -0.8702013 0.0014313033 0.92084694 0.39448482 1.8249106
0.58493716 0.7250059 0.66037905 -0.76042736 0.65599257 -1.4200559 0.26879922 -0.640213
-0.4584939 -0.5018357 0.9779057 -0.21861634
00000000: 2a0f c63f 7b79 6c3f fed2 043d 2611 e53e
00000010: 8709 aabe 8d27 833e 12f3 f03f f094 68bf
00000020: bd6e 50be dbf7 8e3f b0e1 213d fd48 8ebf
00000030: 1ed0 303f cf76 f83e 39ce 493e f6e9 2bbf
00000040: d3d2 2cbe a77a 27be 7c95 31bf 83c5 5ebf
00000050: 929a bb3a a0bc 6b3f eaf9 c93e ac96 e93f
00000060: 71be 153f fd99 393f 9a0e 293f 5eab 42bf
00000070: 21ef 273f 64c4 b5bf 0da0 893e 00e5 23bf
00000080: b6bf eabe 4e78 00bf 0758 7a3f f6dc 5fbe
