ch2/Count_file/result/out.model (npz, 1500 bytes, 6 tensors)

predictor/l1/b f4 [6]
000000 eb 77 d7 b9 ed 43 db 3d 00 00 00 00 00 00 00 00
       -0.0004109734 0.10706315 0.0 0.0
000010 95 1b 9b bd 00 00 00 00
       -0.0757362 0.0

predictor/l1/W f4 [6, 3]
000000 a8 f5 6f 3f 3b 2f 5d bf ed 6c 3f bf 41 c8 6a bf
       0.93734217 -0.8640019 -0.7477558 -0.91711813
000010 c8 2c 63 3f 72 74 80 bf 95 c0 31 bf c7 fb 03 bf
       0.88740206 -1.0035536 -0.6943448 -0.51556057
000020 e2 df ad bc 4e c0 51 bf e9 92 a0 bd 2f c5 e1 bd
       -0.02122492 -0.8193406 -0.07840521 -0.11023938
000030 bf 56 d8 3e dc 9b 00 3f be 83 b4 3f 8e 26 60 bf
       0.42253682 0.5023782 1.4102705 -0.8755883
000040 40 ef 3e be 83 64 b0 be
       -0.18645954 -0.34451684

predictor/l3/b f4 [4]
000000 64 b5 39 bf 9f 55 88 be dd ce 35 3f 93 06 c2 be
       -0.72542405 -0.26627824 0.71018773 -0.3789564

predictor/l3/W f4 [4, 6]
000000 c6 74 3e 3f 9f 36 19 3e 65 e2 75 be b0 4b b2 3f
       0.7439693 0.14962243 -0.24012144 1.3929348
000010 1c 37 d8 3f 72 0f 91 be a7 c4 db be 2c 90 8c 3f
       1.6891818 -0.28332096 -0.4292347 1.0981498
000020 78 4c a0 3f 1b e6 ee 3e 82 d6 b8 bf 8b 46 b4 3f
       1.2523336 0.46659932 -1.4440463 1.4084028
000030 64 61 0f bf 9d b6 85 bf e2 98 84 be 5a 29 b7 bf
       -0.5600798 -1.0446354 -0.2589789 -1.4309494
000040 72 20 ce bf df a7 9f be 27 88 de 3f ef 4d 3b bf
       -1.6103652 -0.31182763 1.73853 -0.7316579
000050 c8 e7 58 bf 3b ce f6 be 91 fc 93 bf 02 14 29 bf
       -0.8472867 -0.48204216 -1.1561452 -0.66046154

predictor/l2/b f4 [6]
000000 7e b8 ac be d5 31 92 3e 35 a0 c5 bd ed 68 0f 3f
       -0.33734506 0.28553644 -0.09649698 0.5601948
000010 5e d9 6d 3f 65 ec b0 bd
       0.929098 -0.08638839

predictor/l2/W f4 [6, 6]
000000 66 dc 04 be f1 8a 9b 3d 4b e8 cb bc e6 a1 2c 3e
       -0.129747 0.0759486 -0.02489104 0.16858634
000010 23 d3 81 3e 82 9f 19 3e 63 04 66 3f 62 9e e2 3f
       0.25356397 0.15002254 0.89850444 1.7704585
000020 c5 f0 30 be 22 9c f3 3d cd 07 17 bf 1b 10 eb bc
       -0.17279346 0.11895014 -0.5899628 -0.028694203
000030 8b 72 b0 3f 78 2c 67 3f 60 51 0b bf af 8a 86 3e
       1.3784956 0.9030223 -0.54421043 0.26277682
000040 0d f7 be bd 90 67 db be 3e 56 22 bf 01 a0 41 3f
       -0.09324465 -0.4285245 -0.63412845 0.7563477
000050 fe 2b 59 bf 95 d0 da ba 8a 62 30 bf ef 3f 9a be
       -0.8483275 -0.0016694242 -0.6890036 -0.30126902
000060 5e 54 03 bf 21 0a c0 be 09 c0 fb 39 bb 57 af bd
       -0.5130061 -0.37507728 0.00048017528 -0.08561655
000070 e1 d6 a6 bf e6 a8 f9 3e 4c 9a b4 3f 91 d0 4e 3f
       -1.3034326 0.48761672 1.4109588 0.80787
000080 89 8a 68 3e 33 1a a9 3e d5 0d d2 bd ed 86 e6 3e
       0.22709097 0.330278 -0.102565445 0.45024815
